model/13-07-23-20_47.pth (torch, 169855 bytes, 30 tensors)

weight f4 [16, 1, 128]
0	0xbbf5b669	-0.0074985516
1	0xbb4ccb3d	-0.003124907
2	0xbd077da0	-0.03307879
3	0x3ca5f848	0.020259991
4	0xbd4eab30	-0.050456226
5	0xbc7dc3db	-0.01548859
6	0x3d0c008a	0.0341802
7	0x3da9afb7	0.08285468
8	0x3caa61e1	0.020798625
9	0xbcf4a8c7	-0.029865636
10	0x3c0b86b7	0.008516005
11	0xbc20f759	-0.009824597
12	0x3d134d54	0.035962418
13	0x3c240aec	0.01001237
14	0x3d0d5790	0.034507334
15	0x3daf535b	0.08560821
16	0xbd1603d6	-0.036624752
17	0xbb4875ab	-0.0030587714
18	0x3ca745bd	0.020418996
19	0xb9f3a419	-0.00046470834
20	0xbc08e065	-0.008354281
21	0xbd9ff4a1	-0.07810331
22	0xbd9be6ee	-0.07612406
23	0xbda2a487	-0.07941537
24	0xbdb0e4b3	-0.08637371
25	0xbda860a3	-0.08221557
26	0xbd895f36	-0.06707613
27	0xbda37a17	-0.07982271
28	0xbdaa08d3	-0.08302464
29	0x3d1e34cc	0.03862457
30	0x3d5d914a	0.054093637
31	0x3d743b29	0.059626732
32	0x3d42c866	0.047554396
33	0x3cf5fafc	0.030026905
34	0x3d1faffc	0.03898619
35	0xbd47bce7	-0.048764136
36	0x3da2caf0	0.079488635
37	0xbbc413f7	-0.0059838253
38	0x3d9bfb0e	0.07616244
39	0x3cdddd9e	0.027083214
40	0x3d8d7353	0.06906762
41	0x3d9025bb	0.070384465
42	0xbc9817c3	-0.018566018
43	0xbcd2e6c5	-0.025744805
44	0x3c5815c4	0.013188783
45	0xbb705bba	-0.0036675767
46	0x3c61eb0f	0.0137889525
47	0x3d37354d	0.044728566
48	0xbd8d44dd	-0.068979
49	0xbb873546	-0.0041262237
50	0xbd8dfc98	-0.06932944
51	0x3dae9619	0.085247226
52	0xbd7e6119	-0.06210432
53	0x3c89a087	0.016800178
54	0xbcc5d55a	-0.024149586
55	0x3d4d4a91	0.05011994
56	0x39504437	0.00019861838
57	0xbc112e09	-0.008861073
58	0x3d844e04	0.06460193
59	0x3da51fcd	0.08062706
60	0xbd831e7d	-0.064022996
61	0xbdae5937	-0.0851311
62	0x3bf54f2a	0.0074862437
63	0x3ce4f2f0	0.027947873
64	0x3ca6128b	0.020272514
65	0x3da6f7d3	0.081527375
66	0x3d229bb9	0.03969929
67	0xbd261a5c	-0.040552482
68	0xbd77cb22	-0.060496457
69	0x3d8c31f2	0.06845464
70	0x3dad3fd5	0.084594406
71	0xbd2c3910	-0.042046607
72	0xbd6810d0	-0.05665666
73	0x3cfc8470	0.03082487
74	0xbd8163a8	-0.06317836
75	0xbcaf959b	-0.021433642
76	0xbdb2cd32	-0.08730544
77	0x3cc5845d	0.024110967
78	0xbcf5e242	-0.030015115
79	0xbd4a0e41	-0.04933
80	0xbd65b9f5	-0.056085546
81	0xbcfdcbb9	-0.030980932
82	0x3d2c1fdd	0.042022575
83	0x3ba3248d	0.0049787224
84	0x3d9ba142	0.07599117
85	0xbd01dc3b	-0.03170417
86	0xbcd4e56a	-0.0259883
87	0x3db0eb72	0.08638658
88	0xbdac6b2c	-0.08418879
89	0xbd0e03af	-0.03467148
90	0xbd6017a4	-0.054710045
91	0x3dae1b7a	0.085013345
92	0x3d40c9e7	0.04706755
93	0xbcf269d3	-0.029591477
94	0xbd19fda9	-0.037595425
95	0x3cdd1fc5	0.026992688
96	0xbcf5ae70	-0.029990405
97	0x3cdfd439	0.027322875
98	0xbd39c68f	-0.045355376
99	0xbd606ebe	-0.054793112
100	0xbb152d79	-0.00227627
101	0x3d542dad	0.051801372
102	0x3d99f6e6	0.07517795
103	0x3ca0d83a	0.019634355
104	0xbd56884e	-0.052376084
105	0x3d3d93cf	0.04628354
106	0x3d0d7d92	0.03454358
107	0x3d1ab265	0.037767787
108	0xbcf0a763	-0.029376691
109	0xbc419372	-0.011814939
110	0x3d27609e	0.040863626
111	0x3d15b930	0.03655356
112	0x3d7014be	0.05861353
113	0xbd58b3ae	-0.05290573
114	0x3d62d581	0.055379394
115	0xbd0cf3a7	-0.034412052
116	0xbb16a6d0	-0.0022987612
117	0xbd2abb04	-0.04168226
118	0xbcd77067	-0.026298715
119	0x3d739e7f	0.059477326
120	0x3d9a68f2	0.07539548
121	0x3cfc5e07	0.030806554
122	0xbd8789cf	-0.06618082
123	0xbd050f7c	-0.03248547
124	0x3d7af30f	0.061266955
125	0xbcc27aed	-0.023740256
126	0xbd93a267	-0.0720871
127	0x3ca73f4f	0.02041593
128	0xbda078a3	-0.0783551
129	0xba07ae0f	-0.0005175778
130	0xbc300139	-0.010742479
131	0x3a77b656	0.00094494724
132	0xbcab6e7d	-0.020926708
133	0xbc51a789	-0.012796291
134	0xbd5a5bc9	-0.05331019
135	0xbd6e8c64	-0.058239356
136	0x3cecc4f9	0.028902518
137	0x3da3086a	0.07960589
138	0xbd90aff9	-0.07064814
139	0xbdab10b5	-0.08352796
140	0xbd443c8b	-0.0479093
141	0x3dad834f	0.08472311
142	0x3da2ad78	0.07943243
143	0xbdafea8d	-0.08589659
144	0x3caec254	0.021332897
145	0x3c44f67c	0.012021657
146	0x3d9fd700	0.0780468
147	0xbcd821db	-0.026383331
148	0x3ceedabe	0.029157039
149	0xbd32ce67	-0.043653872
150	0xbda8dabd	-0.08244846
151	0x3c2407ac	0.010011595
152	0xbd2e8a96	-0.042612635
153	0xbbb23fdc	-0.0054397415
154	0xbc9ef5e4	-0.01940436
155	0xbd922b84	-0.07137206
156	0x3d53e181	0.05172873
157	0x3d798531	0.060918037
158	0x3d8a2d3a	0.067469075
159	0x3c3a9f6b	0.011390547
160	0xbdaab5ef	-0.08335482
161	0xbd90b00f	-0.070648305
162	0xbc19bc21	-0.009383232
163	0xbc17d7ef	-0.009267791
164	0xbda46699	-0.080273814
165	0x3d5ff172	0.05467362
166	0xbd86b82a	-0.06578095
167	0xbb1b3c06	-0.00236869
168	0xbdac6b9a	-0.08418961
169	0x3ccc2768	0.024921134
170	0x3a0aa3f4	0.0005288713
171	0x3d7a8c53	0.06116898
172	0x3c739318	0.014866613
173	0xbd8e86af	-0.069592826
174	0x3daa6fe4	0.08322123
175	0xbd9b865d	-0.07593987
176	0x3d2d8105	0.04235937
177	0xbd7bac45	-0.061443586
178	0x3d431704	0.04762937
179	0x3cb4fb25	0.022092411
180	0x3cc22ab1	0.023701997
181	0xbcab5d80	-0.020918608
182	0x3da4f9ce	0.08055459
183	0x3db038b7	0.086045675
184	0xbc151fed	-0.00910185
185	0xbce628f1	-0.028095694
186	0x3c5fbd2a	0.01365594
187	0x3d68975a	0.056784965
188	0x3da82ba3	0.08211448
189	0x3da44664	0.080212384
190	0x3d27ce9e	0.04096853
191	0x3c253f78	0.010085933
192	0xbd84e4e9	-0.06488974
193	0xbd89c12d	-0.067262985
194	0x3d7454f7	0.05965134
195	0xbda2d482	-0.07950689
196	0xbb78fb33	-0.0037991523
197	0x3d92f3c5	0.071754016
198	0xbd9c2416	-0.0762407
199	0xbd7ab7f5	-0.06121059
200	0xbdb3b698	-0.08775061
201	0x3d447c3f	0.047970053
202	0x3c9ada60	0.018902957
203	0x3d5a0b55	0.053233463
204	0xbc43e6d6	-0.011956891
205	0xbceb3b01	-0.028714659
206	0x3d97c692	0.07410921
207	0xbd6cb60f	-0.057790812
208	0xbd6841b0	-0.05670327
209	0x3d775042	0.060379274
210	0x3da72c25	0.08162717
211	0xbd392713	-0.04520328
212	0xbdacf1f5	-0.08444587
213	0x3b90bb11	0.0044168313
214	0xba18021f	-0.0005798656
215	0x3cd7ee6b	0.026358804
216	0x3d41e89a	0.047340967
217	0x3c21c841	0.009874404
218	0xbd69a405	-0.057041187
219	0xbbc9ac57	-0.0061545777
220	0x3d26bee2	0.040709384
221	0x3c6d157e	0.014470456
222	0xbd778154	-0.06042607
223	0xbbaa0e17	-0.005189668
224	0xbc84e8f0	-0.016224355
225	0xbd1ba13a	-0.037995555
226	0x3d374784	0.044745937
227	0x3d0ddb4a	0.03463296
228	0x3d98aa41	0.07454348
229	0x3d96eef7	0.07369798
230	0xbb5f8929	-0.0034108853
231	0xbd91f880	-0.07127476
232	0x3cecfe74	0.028929926
233	0x3d3c7aae	0.046015434
234	0x3d5812ff	0.05275249
235	0x3d5aed61	0.05344904
236	0x3d44453f	0.0479176
237	0x3c9c65c1	0.019091489
238	0x3bc59f47	0.00603095
239	0x3d34abb6	0.04410907
240	0xbdb2f913	-0.087389134
241	0x3d32e8d3	0.04367907
242	0x3cca3b18	0.024686381
243	0x3cc1ca3e	0.023656007
244	0xbcc815c5	-0.024424443
245	0x3ccf0dd5	0.02527515
246	0x3caa81d7	0.020813866
247	0xbdb00681	-0.085949905
248	0xbd2a53f5	-0.041583974
249	0x3d3436c2	0.043997534
250	0xbd7ad988	-0.06124261
251	0xbd0107a6	-0.031501435
252	0x3d520c2a	0.05128113
253	0x3d395baf	0.045253452
254	0xbd8c5c33	-0.06853523
255	0x3d205303	0.039141666

bias f4 [16]
0	0x3cc59341	0.024118068
1	0x3d4f4f2e	0.05061262
2	0x3d48c07c	0.049011692
3	0xbd78711c	-0.060654745
4	0x3d695fc9	0.056976113
5	0x3c936c1c	0.017995887
6	0x3d04fd85	0.032468338
7	0xbd8262ce	-0.06366502
8	0xbca146f7	-0.019687159
9	0xbd9dd56e	-0.07706724
10	0x3da282d6	0.07935111
11	0x3cd39082	0.025825743
12	0x3d565092	0.05232293
13	0xbd08540d	-0.033283282
14	0xbd3d0c18	-0.04615411
15	0xbdadb86a	-0.0848244

weight f4 [16]
0	0x3f7ff7d1	0.9998751
1	0x3f7ff7d2	0.9998752
2	0x3f7ff7d1	0.9998751
3	0x3f7ff7d0	0.99987507
4	0x3f7ff7ce	0.99987495
5	0x3f7ff7d5	0.99987537
6	0x3f7ff7ce	0.99987495
7	0x3f7ff7d0	0.99987507
8	0x3f7ff7d0	0.99987507
9	0x3f7ff7cf	0.999875
10	0x3f7ff7d1	0.9998751
11	0x3f7ff7d2	0.9998752
12	0x3f7ff7cf	0.999875
13	0x3f7ff7d0	0.99987507
14	0x3f7ff7cf	0.999875
15	0x3f7ff7d2	0.9998752

bias f4 [16]
0	0xb7ae6f6d	-2.0794303e-05
1	0xb7a672bb	-1.9842168e-05
2	0x38e8ee99	0.00011107064
3	0xb808f4a4	-3.2652766e-05
4	0x38f8f19d	0.000118705655
5	0x3757a7d0	1.28540705e-05
6	0x38e5bfb6	0.0001095528
7	0xb7ece122	-2.8238228e-05
8	0xb8f2ea4e	-0.00011583102
9	0x37e952ab	2.781426e-05
10	0xb800034f	-3.052066e-05
11	0x38f2c88b	0.00011576813
12	0xb824ccc4	-3.929135e-05
13	0xb82fba9d	-4.189705e-05
14	0x37cf85a9	2.4738563e-05
15	0xb8d54e10	-0.00010171172

running_mean f4 [16]
0	0x3c80fa88	0.015744463
1	0x3d072242	0.032991655
2	0x3d02ddf5	0.031949956
3	0xbd21fa0e	-0.03954511
4	0x3d18236c	0.037143156
5	0x3c4037da	0.011732066
6	0x3cad685b	0.021167925
7	0xbd2a026c	-0.041506216
8	0xbc5258e2	-0.012838574
9	0xbd4dbf2e	-0.05023115
10	0x3d53d983	0.051721107
11	0x3c8a06f4	0.016849019
12	0x3d0bc11e	0.034119718
13	0xbcb1dd2c	-0.021711908
14	0xbcf6849a	-0.030092526
15	0xbd627382	-0.055285938

running_var f4 [16]
0	0x3eb28601	0.34867862
1	0x3eb28603	0.34867868
2	0x3eb28606	0.34867877
3	0x3eb28600	0.3486786
4	0x3eb28600	0.3486786
5	0x3eb28601	0.34867862
6	0x3eb28605	0.34867874
7	0x3eb28601	0.34867862
8	0x3eb28601	0.34867862
9	0x3eb285ff	0.34867856
10	0x3eb285fc	0.34867847
11	0x3eb28604	0.3486787
12	0x3eb28601	0.34867862
13	0x3eb28609	0.34867886
14	0x3eb28604	0.3486787
15	0x3eb28604	0.3486787

weight f4 [16, 16, 64]
0	0xbab28802	-0.0013620856
1	0x3be5a0ad	0.0070076794
2	0x3b557b71	0.0032574798
3	0x3c011237	0.007877878
4	0xbcd2dea0	-0.025740921
5	0xbcfe701f	-0.031059323
6	0xbc8ff716	-0.017573874
7	0xbcf226c5	-0.029559502
8	0x3b94801f	0.004531875
9	0xbca68eb0	-0.02033171
10	0x3b7b3f12	0.0038337153
11	0xbbc14064	-0.0058975685
12	0x3c63eb67	0.013911105
13	0x3c1a7260	0.009426683
14	0x3cb61862	0.022228424
15	0x3a025c4d	0.00049728603
16	0xbc2986e0	-0.010347098
17	0x3c6797d5	0.014135321
18	0x3c78ecb0	0.015193149
19	0x3c970864	0.018436618
20	0xbbebbd0b	-0.0071941665
21	0xbc2dd0aa	-0.010608831
22	0xbc974398	-0.018464848
23	0x3c1fc92c	0.009752553
24	0x3b91d7a7	0.0044507566
25	0xbc9f6023	-0.019455021
26	0xbc590cb3	-0.013247657
27	0x3bb55386	0.0055336384
28	0xba7bb902	-0.00096024584
29	0x3bde24ae	0.006779275
30	0xbcec4166	-0.028839778
31	0x3c757db7	0.014983586
32	0x3ba742b1	0.005104386
33	0xbce684dc	-0.028139524
34	0x3cf0b2c6	0.02938212
35	0x3cf904d9	0.03039782
36	0xbbb0454a	-0.0053793536
37	0xbb565d63	-0.0032709471
38	0x3c887b4f	0.01666036
39	0x3b7a69b4	0.0038209977
40	0xbcbbe793	-0.022937572
41	0x3cfcc1e1	0.030854167
42	0x3ce9d242	0.028542642
43	0xbca9ace7	-0.02071233
44	0xbc0802bc	-0.008301433
45	0x3affbc5e	0.0019511094
46	0x3cb708bd	0.022343034
47	0xbc96c876	-0.018406134
48	0x3c03d792	0.008047001
49	0x3cd3084c	0.025760792
50	0x3b72309b	0.003695524
51	0x3c8ae229	0.016953545
52	0xbc8a6164	-0.016892143
53	0x3ca7576a	0.020427424
54	0x3a3e340c	0.00072556804
55	0xbc44f11c	-0.012020376
56	0x3aff8505	0.0019494599
57	0xbca4c42d	-0.020113075
58	0xbca2de3b	-0.019881358
59	0xbb8ea9a5	-0.0043537193
60	0xbad18a64	-0.0015986678
61	0xba892a3b	-0.0010464856
62	0x3bb2b611	0.005453833
63	0x3cca086a	0.024662215
64	0xbc8dbaa7	-0.017300917
65	0x3c47c83b	0.012193735
66	0x3a9593ac	0.0011411807
67	0xbc0853c5	-0.008320753
68	0xbcd1e7b5	-0.025623182
69	0xbb4adf7c	-0.003095596
70	0x3cf5fcfe	0.030027863
71	0xbbc2e7c5	-0.0059480392
72	0xbc626b82	-0.013819577
73	0x3ccabcf4	0.024748303
74	0xbcb6949e	-0.022287663
75	0xbc950ada	-0.018193651
76	0xbb63614e	-0.003469545
77	0xbb94518a	-0.004526322
78	0xbca374b0	-0.019953102
79	0x3c779b4a	0.015112707
80	0x3cd0e482	0.025499586
81	0xbc05c2da	-0.008164132
82	0x3c491af6	0.012274494
83	0x3be168a6	0.00687893
84	0x3c10aaf1	0.008829818
85	0x3c939cf9	0.018019186
86	0x3a33ee7f	0.0006863847
87	0xbb0afc19	-0.002120739
88	0xbbb5bd92	-0.00554628
89	0xbca20d22	-0.019781653
90	0xbc821039	-0.015876876
91	0xbb98cca5	-0.0046630674
92	0xbab50425	-0.0013810439
93	0x3be06e0c	0.006849056
94	0x3c48b72e	0.012250705
95	0xbc9b894d	-0.018986369
96	0x3ba00ff2	0.0048847133
97	0x3c493c1b	0.012282397
98	0xbceff9e4	-0.029293962
99	0x3c5693b7	0.013096741
100	0x3c39682b	0.0113163395
101	0xbce6f44f	-0.028192667
102	0xbc8feacd	-0.017568016
103	0x3c692193	0.014229196
104	0x3c9cbfa5	0.019134352
105	0x3bbd62fc	0.005779622
106	0x3c3fe57c	0.011712428
107	0xbcc75410	-0.024332076
108	0xbcf52c85	-0.029928455
109	0xbc01d65c	-0.007924642
110	0xbc34a226	-0.011024987
111	0xbc83a88b	-0.016071578
112	0x3cd07204	0.025444992
113	0xbc445a90	-0.011984482
114	0xbb0f6d7e	-0.002188533
115	0xbc8057d4	-0.01566688
116	0xbcde694c	-0.027149819
117	0x3c3370f1	0.01095222
118	0x3c779dd1	0.01511331
119	0xbc99baa6	-0.018765759
120	0xbce4594e	-0.027874615
121	0x3c67d08f	0.014148845
122	0xbc834e64	-0.01602859
123	0x3ce520a9	0.027969675
124	0x3c3622f6	0.011116734
125	0x3cd7c3c3	0.026338464
126	0x3cb5a047	0.022171153
127	0xbbfeed81	-0.0077797775
128	0xbbdd6e88	-0.006757561
129	0xbbef1907	-0.0072966847
130	0xbca60fdc	-0.020271234
131	0xbcb3ff2a	-0.021972258
132	0x3c7a98ef	0.015295251
133	0xbcc5f963	-0.024166768
134	0xbc503e3c	-0.01271015
135	0xbb957ce0	-0.0045620054
136	0xbcb0799f	-0.021542368
137	0xbb5ad0dd	-0.0033388652
138	0x3cd1d4e5	0.025614211
139	0x3bbb931f	0.0057243253
140	0xbcb73a86	-0.022366773
141	0xbc1ca975	-0.009561886
142	0xbc52f572	-0.012875902
143	0x3a819c8c	0.0009888574
144	0x3b04825a	0.0020219297
145	0x3c88252a	0.016619284
146	0x3cab662d	0.020922745
147	0xbcda42d7	-0.0266432
148	0xbc65a0c3	-0.014015379
149	0xbbe93ed8	-0.0071180873
150	0x3c9b1551	0.018931063
151	0x3c75bea5	0.0149990665
152	0x3c6e2fb9	0.014537745
153	0x3b5543fa	0.0032541738
154	0x3ca6cfa9	0.020362692
155	0x3c23c817	0.009996436
156	0xbc44acf4	-0.012004126
157	0x3cbd18d6	0.023083132
158	0xbc43b27b	-0.0119444085
159	0x3bd455d3	0.0064799576
160	0xbbf24ed7	-0.0073946523
161	0x3c448bbc	0.011996206
162	0xbc1bee1b	-0.009517218
163	0xbc033527	-0.008008278
164	0x3c14ca09	0.009081372
165	0xbc8f4f0f	-0.017493753
166	0x3ce1d9b3	0.027569627
167	0xbc7ac647	-0.015306062
168	0x3bd29472	0.0064263875
169	0xbcb51130	-0.022102922
170	0x3c5c3400	0.013440132
171	0xbc9fb888	-0.019497171
172	0x3c3b26f1	0.011422859
173	0x3c117527	0.008878029
174	0x3caf2339	0.0213791
175	0xbbc774ca	-0.0060869204
176	0xbc9ac07d	-0.018890614
177	0xbcef788f	-0.029232292
178	0xbc5ff84a	-0.013670037
179	0xbcc6a0aa	-0.024246532
180	0xbcad23a7	-0.021135164
181	0xbce87589	-0.028376358
182	0x3cf0225d	0.02931326
183	0x3cf87f1e	0.030334052
184	0xbc4c31cc	-0.012463044
185	0x3a509273	0.0007956393
186	0xbb94c626	-0.0045402227
187	0x3c71204d	0.014717174
188	0x3ba1efcf	0.0049419175
189	0x3c8d2aa7	0.017232252
190	0x3c511a37	0.012762598
191	0xbc0753fc	-0.0082597695
192	0x3c41dd68	0.0118325725
193	0x3c91ae98	0.017783448
194	0x3ced72e3	0.028985446
195	0xbcf7fb93	-0.030271327
196	0x3c780147	0.015137023
197	0xbc9cc3b9	-0.019136297
198	0x3b8fcb3f	0.0043882425
199	0x3c93b16e	0.018028941
200	0xbc9d2ebf	-0.01918733
201	0x3aa7fac0	0.0012815818
202	0xbcddf08b	-0.027092239
203	0x3bdb8679	0.00669938
204	0xbce5240f	-0.027971296
205	0x3c99994d	0.018749857
206	0x3c5d018e	0.01348914
207	0xbc7531a1	-0.014965446
208	0x3bb2b44d	0.0054536224
209	0xbc0ea66f	-0.008706673
210	0x3b81821a	0.003952277
211	0xbcd66292	-0.026170049
212	0xbb93f089	-0.004514758
213	0x3c220bda	0.009890521
214	0xbcac66b0	-0.021045059
215	0x3cba83b7	0.022767885
216	0xbc6a88b5	-0.01431482
217	0x3c51a15c	0.012794819
218	0x3bbbf209	0.00573564
219	0xbc47b580	-0.012189269
220	0xbb8cf70d	-0.0043019117
221	0x3b1bdd5d	0.0023783066
222	0x3c841522	0.016123358
223	0xb9aca972	-0.00032932643
224	0x3c074b56	0.008257708
225	0x3cc4a41a	0.024004031
226	0xbabc5e6e	-0.0014371404
227	0x3c8ff3b5	0.017572263
228	0xbcc08261	-0.02349967
229	0x3c51f4bd	0.012814698
230	0xbce3d8f9	-0.027813422
231	0xbb90dde8	-0.0044209845
232	0x3cb15b65	0.021650026
233	0x3ccc127b	0.024911156
234	0x3cc5704e	0.024101403
235	0x3c82f2a6	0.015984844
236	0xbc8be050	-0.017074734
237	0x3c988dfa	0.018622387
238	0xbc93036f	-0.017945973
239	0x3c9178d8	0.017757818
240	0x3bfa42fd	0.00763738
241	0xbcab8cc2	-0.020941142
242	0x3b7ad1f0	0.0038272105
243	0xbcb5e083	-0.022201782
244	0x3c173529	0.009228983
245	0x3ce1961d	0.0275374
246	0x3cb06c09	0.02153589
247	0x3cf1dd6b	0.029524526
248	0x3ca02321	0.019548
249	0xbceff7fb	-0.029293051
250	0x3ba1786d	0.004927686
251	0x3b887b3d	0.004165082
252	0xbcee3a80	-0.02908063
253	0x3b0e5f8d	0.0021724433
254	0xbcec4c5b	-0.028845003
255	0xbc358da7	-0.011081136

bias f4 [16]
0	0x3c104a94	0.008806843
1	0x3c7d426f	0.0154577335
2	0xbc9b4eb4	-0.018958427
3	0xbb175b28	-0.0023095105
4	0xbc3311b7	-0.0109295165
5	0x3c027d74	0.007964481
6	0x3cf1ca9e	0.02951556
7	0x3c691fa7	0.014228738
8	0x3af3d916	0.0018604125
9	0xbc3e92eb	-0.011631708
10	0x3c89cba6	0.01682074
11	0xbc72dbc5	-0.014822905
12	0xbcb4559f	-0.022013484
13	0x3c3b4a92	0.011431353
14	0xbc97440f	-0.01846507
15	0xbcec56c3	-0.028849965

weight f4 [16]
0	0x3f7ff7d3	0.99987525
1	0x3f7ff7cf	0.999875
2	0x3f7ff7cf	0.999875
3	0x3f7ff7d3	0.99987525
4	0x3f7ff7d2	0.9998752
5	0x3f7ff7cf	0.999875
6	0x3f7ff7ce	0.99987495
7	0x3f7ff7d0	0.99987507
8	0x3f7ff7d0	0.99987507
9	0x3f7ff7d2	0.9998752
10	0x3f7ff7d1	0.9998751
11	0x3f7ff7d1	0.9998751
12	0x3f7ff7d1	0.9998751
13	0x3f7ff7d0	0.99987507
14	0x3f7ff7d0	0.99987507
15	0x3f7ff7d1	0.9998751

bias f4 [16]
0	0x3884c83e	6.3315485e-05
1	0xb8024a02	-3.106334e-05
2	0x38281f64	4.0083556e-05
3	0x3861c7c9	5.3830245e-05
4	0x38cdf260	9.8203076e-05
5	0x38ef2c36	0.00011404643
6	0xb8f01e8d	-0.00011449782
7	0xb8f72da8	-0.00011786382
8	0x38c0c629	9.192184e-05
9	0xb8b36562	-8.554269e-05
10	0xb8ecc022	-0.000112891445
11	0x38d63f65	0.00010216123
12	0xb8ef6072	-0.000114143724
13	0x39031226	0.00012499894
14	0x37120c55	8.705149e-06
15	0x388628d0	6.39722e-05

running_mean f4 [16]
0	0x3b0e7660	0.0021738037
1	0x3c731dd0	0.014838651
2	0x3c84fb87	0.016233219
3	0xbc1a3a2a	-0.009413281
4	0xbc597317	-0.013272068
5	0x3b629f41	0.0034579786
6	0x3b9ec135	0.0048448094
7	0x3c377a78	0.011198632
8	0x3cae958d	0.021311546
9	0xbc51c6f0	-0.012803778
10	0x3ca78024	0.020446844
11	0xbcbf67c3	-0.023364907
12	0xbc29deaf	-0.010368033
13	0xbaef5e67	-0.0018262387
14	0xbb640906	-0.0034795417
15	0xbc9561a4	-0.018235035

running_var f4 [16]
0	0x3eb526c2	0.35381132
1	0x3eb71434	0.357576
2	0x3eb629ce	0.3557877
3	0x3eb66a90	0.35628176
4	0x3ebad198	0.36488032
5	0x3eb88901	0.36042026
6	0x3eb7335a	0.35781366
7	0x3eb5dfc6	0.35522288
8	0x3eb6a530	0.35672903
9	0x3eb47451	0.35244992
10	0x3eb6037b	0.3554953
11	0x3eb4a3f8	0.35281348
12	0x3eb76ac8	0.35823655
13	0x3eb94ceb	0.36191496
14	0x3eb509bb	0.35358986
15	0x3eb87ddf	0.36033532

weight f4 [16, 16, 32]
0	0x3b0d7a24	0.0021587694
1	0xbc3c0d35	-0.011477758
2	0x3c11cd3b	0.008899028
3	0xbcd84115	-0.026398221
4	0x3c900267	0.01757927
5	0xbd2bdbd6	-0.0419577
6	0x3d04338b	0.032275718
7	0x3c21aab0	0.009867355
8	0x3d1c5c73	0.038174104
9	0xbd20bd7c	-0.039243206
10	0xbca18e42	-0.019721154
11	0x3c5779de	0.013151614
12	0xbc3b22b3	-0.011421847
13	0xbd1d2944	-0.038369432
14	0xbd2e13fc	-0.042499527
15	0xbc9f412d	-0.019440258
16	0xbce5157a	-0.027964342
17	0x3d23b916	0.039971434
18	0x3b477afc	0.0030438295
19	0x3d050280	0.032473087
20	0xbd32e702	-0.043677337
21	0xbc5ddfd8	-0.013542138
22	0xbce982b6	-0.02850471
23	0xbc321f4a	-0.010871718
24	0xbd0aa995	-0.033853132
25	0x3d19cc69	0.037548456
26	0xbd001ab1	-0.031275455
27	0x3c630f0c	0.013858568
28	0xbb03574c	-0.0020041047
29	0x3c01f69d	0.007932332
30	0x3cffeb7d	0.03124022
31	0xbd28c3a4	-0.041202202
32	0xbbf3325d	-0.0074217753
33	0xbcf0f296	-0.029412549
34	0x3ce190be	0.027534839
35	0xbc9962c3	-0.018723851
36	0x3bc04c2d	0.005868456
37	0x3cee4dc8	0.029089823
38	0x3d19f2d3	0.03758509
39	0xbca57666	-0.020198058
40	0x3cbf6668	0.02336426
41	0xbd225ed5	-0.03964122
42	0x3a88e437	0.001044399
43	0x3c91b229	0.017785149
44	0xbd229522	-0.039693005
45	0x3cdb612f	0.02677974
46	0x3b278997	0.0025564188
47	0x3d074721	0.03302682
48	0x3c0704b7	0.00824087
49	0x3c80516b	0.015663823
50	0x3c83c2c7	0.016084088
51	0x3ca4db87	0.02012421
52	0xbcf2b223	-0.029625958
53	0x3c3eff61	0.011657567
54	0xbcf7cfab	-0.030250391
55	0xbc921a5e	-0.017834838
56	0xbc22a35c	-0.009926643
57	0x3bacfcf0	0.005279176
58	0x3d264e9e	0.04060232
59	0x3d0959ef	0.033533033
60	0xbc0c7a76	-0.008574119
61	0xbc4f07e3	-0.012636158
62	0xbca96f10	-0.020682842
63	0xbd0a7400	-0.033802032
64	0x3c42370d	0.011853945
65	0x3c6b8d7d	0.014376995
66	0xbc6f4f24	-0.014606271
67	0xbcf7525e	-0.030190643
68	0xbcb26786	-0.02177788
69	0xbc46e680	-0.012139916
70	0xbaafbd99	-0.0013407945
71	0x3c439aa7	0.011938727
72	0xb9f51b39	-0.00046750324
73	0xbcfe284b	-0.031025073
74	0x3d1007a4	0.035163537
75	0x3ce0e377	0.027452214
76	0x3cc80760	0.02441758
77	0xbd1fd325	-0.039019722
78	0xbc70658a	-0.014672646
79	0x3cecd85f	0.028911768
80	0xbcbf7b31	-0.023374172
81	0xbc8decfa	-0.017324913
82	0xbc98d985	-0.018658409
83	0xbc7a2503	-0.015267613
84	0xba943f39	-0.0011310346
85	0xbc801fb1	-0.015640112
86	0xbd34a38f	-0.044101294
87	0xbcafb756	-0.021449726
88	0xbd0433da	-0.032276012
89	0x3c077c42	0.008269371
90	0xbd2575a4	-0.040395394
91	0x3d1a0f77	0.037612405
92	0x3d30ed3a	0.043194987
93	0xbc9e516c	-0.019325934
94	0xbc484f54	-0.012225945
95	0xbccfeb53	-0.025380766
96	0x3ba41120	0.0050069243
97	0xbd071a74	-0.032984212
98	0x3a989f25	0.0011644108
99	0x3d28ff9f	0.041259404
100	0x3d1d219b	0.038362127
101	0x3d0532ed	0.03251927
102	0xbc635184	-0.013874415
103	0xbd0de6fe	-0.03464412
104	0xbc0172b1	-0.00790088
105	0x3ce5443e	0.027986642
106	0xbcb6140b	-0.022226354
107	0x3d27476b	0.040839594
108	0x3c38e9db	0.011286224
109	0x3c7ad903	0.015310529
110	0xbcd87e8a	-0.026427526
111	0x3c8f086d	0.017460072
112	0x3d2f19fe	0.042749397
113	0xbcb08355	-0.021546999
114	0x3ce5bd71	0.028044434
115	0x3c210df3	0.009829986
116	0xbb04969e	-0.0020231376
117	0x3d2cc48e	0.042179637
118	0x3d120597	0.035649862
119	0xbd0fcd53	-0.03510792
120	0xbcdcf485	-0.026972065
121	0xba83bcaa	-0.0010050733
122	0xbcaa4ed9	-0.02078955
123	0x3d2fcd87	0.042920616
124	0x3cde6ceb	0.027151546
125	0xbd1a7237	-0.03770658
126	0x3c8fdaf7	0.017560465
127	0xbcc5e382	-0.024156336
128	0xbd186459	-0.037205074
129	0x39c3df8d	0.00037359857
130	0x3cbbdb94	0.022931851
131	0x3d0d3c18	0.034481138
132	0x3ca8c28d	0.020600582
133	0x3c661f34	0.014045525
134	0x3d0ca422	0.034336217
135	0xbb5f3028	-0.0034055803
136	0x3d10f71f	0.035391923
137	0x3ada9a72	0.0016678108
138	0xbceb3ba0	-0.028714955
139	0x3bc4ef29	0.0060099554
140	0xbbe01858	-0.0068388395
141	0xbd22c71b	-0.039740663
142	0x3d301004	0.042984024
143	0x3d0dd665	0.03462829
144	0x3ac7c2fe	0.0015240607
145	0x3c5b7dec	0.013396721
146	0xbc0e4fae	-0.008685989
147	0x3ce39f62	0.02778596
148	0x3cd4a9f6	0.02595995
149	0xbcd0fe5b	-0.025511911
150	0xbcb0b9fa	-0.021573056
151	0x3d113da5	0.03545918
152	0x3c2d4f87	0.010578043
153	0xbd2ae083	-0.041718017
154	0x3d206e17	0.03916749
155	0x3c79763c	0.015225943
156	0xbad8aaf7	-0.0016530444
157	0xbd05f109	-0.032700572
158	0x3c943c82	0.018095259
159	0xbd140153	-0.036134075
160	0xbd18fb31	-0.03734893
161	0x3b0eca21	0.0021787959
162	0x3d1d8442	0.03845621
163	0x3c5e10e1	0.013553829
164	0x3d2e948e	0.04262214
165	0xbcce5d46	-0.02519096
166	0xbba1f576	-0.0049425913
167	0x3a5abd93	0.0008344289
168	0xbc879b7f	-0.016553639
169	0x3c82e380	0.015977621
170	0x3bcde820	0.006283775
171	0xbba6f3ed	-0.005094996
172	0x3d33fb21	0.043940667
173	0x3c6a38cc	0.014295768
174	0x3c3ead31	0.011637972
175	0xbd07cd21	-0.03315461
176	0x3d0418fd	0.032250393
177	0xbd2de41a	-0.042453863
178	0xbcdc1d18	-0.026869342
179	0xbb8ba69e	-0.0042618057
180	0xbd3253d1	-0.043536965
181	0x3bdac41d	0.0066762106
182	0x3d1ce321	0.038302545
183	0x3bb8b0b0	0.005636297
184	0x3c0cedc8	0.008601613
185	0x3ce27b17	0.027646584
186	0xbbf46b54	-0.0074590836
187	0x3cb10588	0.021609083
188	0x3cd28761	0.02569932
189	0x3cedf55d	0.029047662
190	0x3b988db7	0.0046555656
191	0xbcff54d0	-0.031168371
192	0xbca838a9	-0.02053483
193	0x3aa8cbc5	0.0012878111
194	0x3c8a6936	0.016895872
195	0x39cb1b07	0.00038739314
196	0xbcc36592	-0.023852143
197	0xbbc9cda5	-0.006158548
198	0x3c42ab0d	0.011881602
199	0xbcac5f85	-0.021041641
200	0xbc5b239c	-0.013375189
201	0x3cba6035	0.022750953
202	0xbca9c276	-0.020722609
203	0xbd0b6d0f	-0.034039553
204	0xbc83e0ac	-0.016098343
205	0xbd062638	-0.032751292
206	0x3c50a501	0.0127346525
207	0x3b90643a	0.004406479
208	0x3bdb45eb	0.0066916845
209	0xbccc6423	-0.024950093
210	0xbca820d1	-0.02052346
211	0xbd0c4d25	-0.03425326
212	0xbd10f597	-0.035390463
213	0x3c31748c	0.01083101
214	0x3c4a3c27	0.012343443
215	0x3d0da01a	0.034576513
216	0x3ae42dd8	0.0017408682
217	0x3bff1e86	0.007785621
218	0xba7b5973	-0.0009588219
219	0xbd298b02	-0.041392334
220	0x3b9127cb	0.0044297925
221	0xbd00b6e1	-0.031424407
222	0x3cec50c8	0.028847113
223	0xbd0a342a	-0.033741154
224	0x3bd42931	0.006474637
225	0x3aed4756	0.0018102925
226	0xbd1cc3fe	-0.03827285
227	0x3bd91932	0.006625318
228	0x3c80bead	0.015715921
229	0x3d21f1c3	0.039537203
230	0x3c258c58	0.010104261
231	0x3d1ee203	0.03878976
232	0x3c6799e7	0.014135814
233	0xbd151270	-0.036394536
234	0x3c944729	0.018100338
235	0xbcb93b0a	-0.02261116
236	0x3ce13ffd	0.027496332
237	0x3b8c81dd	0.004287942
238	0x3bd73090	0.0065670684
239	0xbbcb03b0	-0.006195508
240	0x3d076841	0.03305841
241	0x3cffc0e6	0.03121991
242	0xbca02afe	-0.01955175
243	0xbd02a944	-0.031899706
244	0x3cafeb4e	0.021474507
245	0x3bdf461a	0.0068137767
246	0x3d2917ad	0.041282345
247	0xbc353c5f	-0.011061757
248	0x3cb8d85e	0.02256411
249	0xbb9849f1	-0.0046474864
250	0x3d05056f	0.032475885
251	0xbbba367d	-0.005682765
252	0x3d1a0d5c	0.037610397
253	0x3c27a23f	0.010231554
254	0xbd309f4c	-0.043120667
255	0x38e91259	0.00011113723

bias f4 [16]
0	0xbd100461	-0.035160426
1	0x3cc071b9	0.023491727
2	0xbd202d57	-0.03910574
3	0xbc2963a5	-0.0103386985
4	0xbcfdb588	-0.03097035
5	0x3b787694	0.0037912475
6	0x3d2292ea	0.03969089
7	0xbd013d6c	-0.031552717
8	0x3bb26bb8	0.00544497
9	0x3d154f60	0.03645265
10	0x3c33fee5	0.010986065
11	0x3d1b6e1a	0.037946798
12	0x3b39fa3d	0.0028377913
13	0x3c009f85	0.007850532
14	0x3b6e8fe8	0.0036401693
15	0x3cd35637	0.025797946

weight f4 [16]
0	0x3f7ff7d0	0.99987507
1	0x3f7ff7d2	0.9998752
2	0x3f7ff7cf	0.999875
3	0x3f7ff7d1	0.9998751
4	0x3f7ff7cf	0.999875
5	0x3f7ff7d2	0.9998752
6	0x3f7ff7d1	0.9998751
7	0x3f7ff7d2	0.9998752
8	0x3f7ff7d0	0.99987507
9	0x3f7ff7d1	0.9998751
10	0x3f7ff7d1	0.9998751
11	0x3f7ff7d1	0.9998751
12	0x3f7ff7d1	0.9998751
13	0x3f7ff7cf	0.999875
14	0x3f7ff7d1	0.9998751
15	0x3f7ff7d2	0.9998752

bias f4 [16]
0	0x38ed1df3	0.00011306619
1	0x39000b08	0.0001221114
2	0x38fcf258	0.000120614364
3	0x37ec68dd	2.8182223e-05
4	0x375282b6	1.2547409e-05
5	0xb5058a9a	-4.974805e-07
6	0x38d33b12	0.00010072267
7	0x39034426	0.00012518521
8	0x390259df	0.00012431246
9	0xb8fa6531	-0.00011939777
10	0xb9019678	-0.00012358453
11	0x38fff07e	0.00012204143
12	0xb900607f	-0.00012242979
13	0xb902b995	-0.00012466901
14	0xb7216773	-9.620434e-06
15	0x38339976	4.2819847e-05

running_mean f4 [16]
0	0xbdebf023	-0.11520412
1	0x3c799b50	0.015234783
2	0xbdc6dd20	-0.09710145
3	0x3c26d756	0.010183176
4	0x3d8888dc	0.06666729
5	0xbd00fbba	-0.031490065
6	0x3dc51f68	0.09625131
7	0x3e1ac3fe	0.15113828
8	0x3cc4e0a1	0.024032893
9	0xbe4ec430	-0.20192027
10	0x3e3d0234	0.18457872
11	0x3e78e1f7	0.24304949
12	0x3c16de3a	0.009208256
13	0xbd21cc3a	-0.039501406
14	0xbd9b8792	-0.07594217
15	0x3dd88087	0.1057139

running_var f4 [16]
0	0x3ec14fbc	0.37756145
1	0x3ecc47d0	0.3989854
2	0x3ecdc105	0.40186325
3	0x3ecf978d	0.40545312
4	0x3ed97b51	0.42476895
5	0x3ed0d521	0.40787604
6	0x3ece5c7a	0.4030493
7	0x3ed26d41	0.4109898
8	0x3ec8e23f	0.39235112
9	0x3ec8b90e	0.39203686
10	0x3ec6561a	0.38737565
11	0x3ed4bba0	0.41549397
12	0x3ec45b11	0.38350728
13	0x3eda66a2	0.42656428
14	0x3ecaa4df	0.39578912
15	0x3ec21ed5	0.37914148

weight f4 [16, 16, 3]
0	0xbddc9412	-0.1077043
1	0xbe070712	-0.13186291
2	0xbd72bd22	-0.059262402
3	0x3dbecb91	0.09316171
4	0x3e0ade19	0.13561286
5	0x3dae660d	0.085155584
6	0xbd87050b	-0.06592759
7	0x3de59ad6	0.11211173
8	0xbe133b10	-0.14378
9	0xbda1300d	-0.07870493
10	0xbd417ae1	-0.047236327
11	0xbc47042e	-0.012146993
12	0xbe05e2ff	-0.13074873
13	0x3dc62927	0.09675818
14	0xbd3bc6a4	-0.045843735
15	0x3dd8652b	0.10566171
16	0x3c3d3171	0.011547432
17	0xbd3e304c	-0.04643278
18	0xbd70fa0b	-0.05883221
19	0x3b425dc7	0.0029657946
20	0x3d96512b	0.073397
21	0x3d460987	0.04834893
22	0xbd156be5	-0.03647985
23	0x3da59a4c	0.080860704
24	0x3dc0fa79	0.09422774
25	0x3da9e8a3	0.08296325
26	0xbdefce04	-0.11709216
27	0xbe1036f0	-0.14083457
28	0xbdc08bf7	-0.09401696
29	0xbce24ddc	-0.027625017
30	0x3dca631b	0.09882184
31	0x3dc09274	0.09402934
32	0x3d67c697	0.056585874
33	0x3c571f3f	0.013130008
34	0x3de4a345	0.11163954
35	0xbe134067	-0.14380036
36	0xbd6f952b	-0.058491867
37	0xbd0c133b	-0.034198027
38	0x3dbc8136	0.092043325
39	0xbde2b6f0	-0.11070049
40	0xbc9dc6d8	-0.019259855
41	0xbd8518b3	-0.064988516
42	0x3dbf717d	0.09347818
43	0xbbf494cf	-0.0074640284
44	0x3d017972	0.03160996
45	0xbd6bee78	-0.05760047
46	0x3d80af20	0.062834024
47	0x3c4d9bf4	0.012549389
48	0xbdeb4820	-0.11488366
49	0x3d8100d1	0.06298984
50	0xbd8840c3	-0.06652977
51	0xbcac68da	-0.02104609
52	0x3d93b0d3	0.07211461
53	0x3d03ca85	0.03217556
54	0xbdcf435e	-0.10120271
55	0x3d507e31	0.050901596
56	0x3dc3db41	0.09563304
57	0x3d69481a	0.056953527
58	0xbdd9ae88	-0.10628992
59	0xbdbad688	-0.0912295
60	0x3db027b2	0.08601321
61	0xbe057a54	-0.13034946
62	0x3d4829ce	0.048867993
63	0x3e099a9c	0.13437885
64	0xbe120fe7	-0.14263879
65	0x3db3555f	0.087565176
66	0xbc7cbf04	-0.015426401
67	0x3dc386bf	0.09547185
68	0x3ca86c21	0.020559372
69	0x3c15f17f	0.009151815
70	0xbdab0f09	-0.08352477
71	0x3d140c5d	0.036144603
72	0x3da2fb2e	0.07958065
73	0xbd3d5951	-0.046227757
74	0xbc3e1ea8	-0.011603989
75	0x3d9dc367	0.07703286
76	0xbda5082f	-0.080582015
77	0x3e135b42	0.14390281
78	0x3db2838a	0.08716495
79	0xbd6dcc1a	-0.058055975
80	0xbb548c10	-0.0032432117
81	0x3dc55dee	0.09637056
82	0x3dc1b907	0.09459119
83	0xbdfb602b	-0.12274202
84	0xbcceae2f	-0.025229542
85	0xbcb82669	-0.022479253
86	0x3a8b038b	0.0010605914
87	0xbce0e1d4	-0.027451433
88	0x3bfc7d86	0.0077053932
89	0x3d9fa103	0.077943824
90	0xbd631374	-0.055438474
91	0x3dd100bd	0.10205219
92	0xbda164c7	-0.0788055
93	0xbdfdcb28	-0.123922646
94	0x3e098e88	0.13433278
95	0x3d75b15f	0.059983607
96	0xbdacbdf0	-0.08434665
97	0xbd87a8a7	-0.06623965
98	0x3bfd83fd	0.0077366815
99	0x3d854f67	0.065092854
100	0x3e049922	0.1294904
101	0xbbbf254f	-0.005833305
102	0x3d911390	0.070838094
103	0xbe0ff554	-0.14058429
104	0x3e0f19dc	0.13974708
105	0xbd848e5f	-0.06472468
106	0x3e107125	0.14105661
107	0xbb53d1b2	-0.0032321033
108	0x3c30e146	0.010795897
109	0xbb850de0	-0.004060492
110	0x3d350b7d	0.04420041
111	0xbd52c2ac	-0.051455185
112	0x3d2a6a64	0.04160537
113	0xbcb0ec24	-0.021596976
114	0x3cd229cb	0.025654694
115	0x3dc416d4	0.095746666
116	0xbd5ef542	-0.054433115
117	0xbe0e8d39	-0.1392106
118	0x3d98b3b1	0.074561484
119	0x3e109988	0.14121068
120	0x3c9a050a	0.018801231
121	0x3d278d91	0.040906493
122	0x3de307b1	0.110854514
123	0x3e099479	0.13435544
124	0xbd5b729b	-0.053576093
125	0x3c3e77a4	0.011625204
126	0xbddfad71	-0.10921753
127	0xbc2b98a9	-0.010473409
128	0x3dbff0dc	0.09372112
129	0xbbefddfa	-0.007320163
130	0xbe138956	-0.14407858
131	0x3e098d74	0.13432866
132	0x3d50c143	0.05096556
133	0xbdbf3aae	-0.09337364
134	0xbd8dc794	-0.06922832
135	0x3d274b12	0.040843077
136	0xbd232758	-0.039832443
137	0xbd6a6423	-0.057224404
138	0xbe03d372	-0.12873629
139	0xbe03ec68	-0.1288315
140	0xbdd22e6d	-0.10262761
141	0x3dcb4974	0.099261194
142	0x3c21cf2c	0.009876054
143	0x3c9c445f	0.01907557
144	0x3dfecd02	0.12441446
145	0x3db0d924	0.08635166
146	0xbd8b04a0	-0.067879915
147	0x3cb4567c	0.022013895
148	0xbd4b9afe	-0.04970836
149	0x3e073316	0.13203081
150	0x3926d688	0.00015910913
151	0x3d9133f5	0.07089988
152	0xbd1cc5ff	-0.03827476
153	0x3df33f11	0.11877263
154	0xbda161ff	-0.078800194
155	0x3d752ffd	0.05986022
156	0x3e12fa45	0.14353283
157	0xbc96bb84	-0.018399961
158	0x3dc885a6	0.097911164
159	0x3d99f6d9	0.075177856
160	0x3c0e3df8	0.008681767
161	0xbd0512dd	-0.032488693
162	0x3dcd2672	0.100170985
163	0xbdc27228	-0.0949443
164	0x3bbdd9c5	0.0057937824
165	0x3e0e972a	0.13924852
166	0xbd871bdb	-0.0659711
167	0x3dc1f628	0.09470779
168	0x3e0edb08	0.13950741
169	0x3cd4e029	0.025985794
170	0x3dfb94c1	0.12284232
171	0x3e02233a	0.1270875
172	0xbdb92d74	-0.090418726
173	0xbd9f92db	-0.07791682
174	0xbd969a10	-0.07353604
175	0xbd00fd12	-0.031491347
176	0x3dc47cc0	0.09594107
177	0xbe004ac4	-0.12528521
178	0x3db538d6	0.08848731
179	0xbd76c258	-0.060243934
180	0x3d4675ce	0.04845219
181	0xbdfc1769	-0.12309153
182	0x3dee563a	0.1163754
183	0x3dffbe8a	0.12487514
184	0xbd875079	-0.06607146
185	0x3cf830c8	0.030296698
186	0xbdaf9f6a	-0.08575328
187	0x3daef4c4	0.08542779
188	0xbdd0e7e6	-0.10200481
189	0xbde01b30	-0.109426856
190	0x3e1304ba	0.14357272
191	0xbdcd2da9	-0.100184746
192	0xbd8592b0	-0.06522119
193	0x3c42de5b	0.011893834
194	0xbdcc1d48	-0.099665225
195	0x3c90a436	0.017656427
196	0xbe09689d	-0.13418813
197	0x3db5bebd	0.08874271
198	0x3ddda856	0.10823123
199	0x3da3bac4	0.07994607
200	0xbc9b4e98	-0.018958375
201	0x3dc0f5a1	0.0942185
202	0x3e099077	0.13434015
203	0x3baa277d	0.0051926957
204	0x3e0e40e7	0.13891946
205	0xbdb49451	-0.088173516
206	0xbca28515	-0.01983885
207	0x3dcdbc77	0.100457124
208	0x3dc23350	0.09482443
209	0xbc91e83a	-0.01781093
210	0x3d3ccc5a	0.046093322
211	0x3daddd21	0.084894426
212	0xbd99a6e6	-0.075025365
213	0x3e0d1f4a	0.13781467
214	0x3d8c9485	0.06864265
215	0x3caf3da4	0.021391697
216	0xbdc479c3	-0.09593537
217	0x3d286c66	0.041119
218	0xbcc9bf86	-0.024627458
219	0xbdc8b2d3	-0.09799733
220	0xbbef41cd	-0.0073015452
221	0xb9ecb271	-0.00045146377
222	0x3dd4b8fc	0.103868455
223	0x3dfaead3	0.122518204
224	0x3d2c767e	0.04210519
225	0xbd07edf9	-0.033185933
226	0xbd5f6b36	-0.054545604
227	0xbdf06541	-0.11738063
228	0xbd9f53ab	-0.0777963
229	0xbe0c1107	-0.1367837
230	0xbdf02dc5	-0.1172748
231	0x3db06d13	0.08614554
232	0x3dfa9576	0.12235539
233	0xbdfca854	-0.123367935
234	0x3ce60132	0.028076742
235	0xbdcd7ff9	-0.100341745
236	0xbe02d427	-0.12776242
237	0xbdb14b6f	-0.08656966
238	0x3c11b23e	0.008892594
239	0x3e0792c7	0.13239585
240	0x3e04dc18	0.12974584
241	0x3de4c7be	0.1117091
242	0xbc252b98	-0.010081194
243	0x3e0474c4	0.12935168
244	0x3d9ddab1	0.07707728
245	0x3dbb19da	0.0913579
246	0xbe0d97e5	-0.13827474
247	0xbdee525a	-0.11636801
248	0x3c5bd84e	0.01341827
249	0x3cb4fd67	0.022093488
250	0xbdcdfcb8	-0.10057968
251	0xbd12d3aa	-0.03584639
252	0x3df5c226	0.119999215
253	0xbd9c3ad0	-0.07628405
254	0xbdfd3215	-0.12363068
255	0xbce14213	-0.027497327

bias f4 [16]
0	0x3cd691b9	0.026192533
1	0xbd9a48e2	-0.075334325
2	0x3d10fe07	0.03539851
3	0x3db24e2f	0.087063186
4	0x3ddfe103	0.109315895
5	0x3dadcfe1	0.084869154
6	0x3c4f1fe5	0.012641882
7	0xbbdb8844	-0.0066995937
8	0x3d8cf423	0.06882503
9	0xbc854fdf	-0.016273437
10	0x3cea2ac1	0.02858484
11	0x3df8ac1b	0.121422015
12	0xbdbc7d7f	-0.09203624
13	0x3ceea571	0.029131623
14	0x3dbfca25	0.09364728
15	0xbdc47d47	-0.09594207

weight f4 [16]
0	0x3f7ff7d1	0.9998751
1	0x3f7ff7d2	0.9998752
2	0x3f7ff7d2	0.9998752
3	0x3f7ff7d3	0.99987525
4	0x3f7ff7cf	0.999875
5	0x3f7ff7d1	0.9998751
6	0x3f7ff7d3	0.99987525
7	0x3f7ff7ce	0.99987495
8	0x3f7ff7d1	0.9998751
9	0x3f7ff7d5	0.99987537
10	0x3f7ff7d5	0.99987537
11	0x3f7ff7d2	0.9998752
12	0x3f7ff7cf	0.999875
13	0x3f7ff7d1	0.9998751
14	0x3f7ff7d7	0.9998755
15	0x3f7ff7d3	0.99987525

bias f4 [16]
0	0xb8fe4b13	-0.000121256475
1	0xb8cd87da	-9.800466e-05
2	0xb8a18a59	-7.7028475e-05
3	0xb9027dd5	-0.00012444642
4	0xb90287ee	-0.00012448404
5	0x3901b182	0.00012368525
6	0x39026338	0.00012434728
7	0x3902193b	0.00012407165
8	0xb90209c8	-0.0001240141
9	0xb8f7aa55	-0.000118096046
10	0xb8a52434	-7.8745565e-05
11	0x39028a21	0.00012449223
12	0xb9021641	-0.00012406056
13	0xb9023b47	-0.00012419849
14	0x38ff57c1	0.00012175693
15	0xb8df00a8	-0.00010633591

running_mean f4 [16]
0	0xbcfac7fc	-0.030612938
1	0x3d6c56f6	0.05770012
2	0x3da143e6	0.07874279
3	0x3ebdb024	0.37048447
4	0x3e0bf576	0.13667855
5	0xbdbc73ee	-0.09201799
6	0x3ddabd58	0.10680646
7	0xbce9b029	-0.028526383
8	0x3ce11b9b	0.027478984
9	0xbea388b8	-0.31940246
10	0x3d2a84cd	0.041630555
11	0x3eab46e5	0.33452526
12	0x38933807	7.019942e-05
13	0x3edcfe3e	0.4316272
14	0xbcd7bfcf	-0.026336579
15	0xbecb363e	-0.3968982

running_var f4 [16]
0	0x3eeae1a0	0.45875263
1	0x3ec68896	0.38776082
2	0x3edd6812	0.43243462
3	0x3ed6e1cf	0.41969153
4	0x3ef99746	0.48748225
5	0x3eec9a62	0.46211535
6	0x3ee31d7e	0.44358438
7	0x3ee8ef58	0.45495105
8	0x3ecf1814	0.40448058
9	0x3f00a9d6	0.5025915
10	0x3ed68947	0.4190161
11	0x3edd141d	0.43179408
12	0x3ee69c93	0.45041332
13	0x3f0e12f6	0.5549768
14	0x3ed946cf	0.42436835
15	0x3ee04341	0.4380131

weight f4 [64, 128]
0	0xbda92c50	-0.08260405
1	0x3d106d37	0.035260405
2	0x3d0f29b8	0.034951895
3	0xb98e1e41	-0.00027106892
4	0x3d38a5c2	0.045079954
5	0x3d470465	0.048588175
6	0xbd08317b	-0.033250313
7	0xbd69213d	-0.056916464
8	0x3d06e6af	0.03293484
9	0xbd926481	-0.07148076
10	0xbda41ca3	-0.080132745
11	0xbd4c7299	-0.049913976
12	0x3da68a65	0.081318654
13	0x3bcd1d10	0.006259568
14	0xba9ad35d	-0.0011812259
15	0xbc11772f	-0.008878513
16	0x3d627314	0.05528553
17	0xbdb0eb03	-0.08638575
18	0x3c9eecb8	0.019399986
19	0x3d9c63db	0.076362334
20	0x3c95d3b8	0.018289432
21	0x3bef6a44	0.007306369
22	0xbda0acd5	-0.07845465
23	0xbd8bf378	-0.06833547
24	0x3cbd96b6	0.023143154
25	0xbd7f5c98	-0.062344164
26	0x3d76803b	0.060180884
27	0x3d12919e	0.035783403
28	0xbd31d56e	-0.043416433
29	0x3d8da8b8	0.06916946
30	0x3d8297a6	0.06376581
31	0x3d9753e6	0.07389049
32	0xbd2ecbf3	-0.04267497
33	0xbd608be6	-0.054820918
34	0x3bfd4460	0.007729098
35	0xbd95751b	-0.07297727
36	0xbc8a7348	-0.016900674
37	0xbd8715aa	-0.06595929
38	0x3c7e5c00	0.015524864
39	0x3d57c039	0.052673552
40	0xbc6ba643	-0.014382902
41	0xbd5de83e	-0.05417656
42	0x3d73612a	0.059418835
43	0x3d91979c	0.07108995
44	0x3da491ce	0.080356225
45	0x3ce9ac58	0.028524563
46	0x3d2953fb	0.041339856
47	0x3c8aea2c	0.016957365
48	0x3d9c2a17	0.076252155
49	0x3d94845b	0.07251807
50	0xbd8ce582	-0.06879713
51	0xbd89c290	-0.06726563
52	0x39d76614	0.0004108405
53	0xbd50a494	-0.050938204
54	0x3cfaa8a3	0.03059799
55	0xbd03992c	-0.032128498
56	0xbda73f21	-0.08166338
57	0x3d8e29d1	0.069415696
58	0x3d8e7fe6	0.069579884
59	0xbd903698	-0.07041663
60	0xbd3787ef	-0.04480737
61	0x3d865a92	0.06560244
62	0x3d2b98a6	0.041893624
63	0x3d8a6f6d	0.06759534
64	0xbceae937	-0.028675659
65	0x3d64ef11	0.055892054
66	0x3d05af1d	0.032637704
67	0xbd1bbb57	-0.038020458
68	0xbcd03373	-0.025415158
69	0xbd4cd67a	-0.05000923
70	0x3da18f5a	0.0788867
71	0xbdb4becc	-0.08825454
72	0x3daa4151	0.08313239
73	0x3c9629ba	0.018330444
74	0x3d50ee21	0.051008347
75	0x3cdb4963	0.026768392
76	0x3d147912	0.036248274
77	0xbd8207a6	-0.06349115
78	0xbcfec32a	-0.03109892
79	0xbdb0febc	-0.08642337
80	0x3d40e346	0.047091745
81	0xbbe004e1	-0.006836519
82	0x3c5c1b2b	0.013434212
83	0xbcba67a1	-0.022754492
84	0xbdb044a0	-0.08606839
85	0xbc043a55	-0.008070548
86	0x3c079125	0.008274351
87	0xbc9f7048	-0.01946272
88	0x3da9bb84	0.08287719
89	0x3d825b35	0.063650526
90	0x3da68db3	0.08132496
91	0xbd799460	-0.060932517
92	0xbd95a1c2	-0.073062435
93	0xbce626c1	-0.028094651
94	0xbce7da8e	-0.028302457
95	0xbd9cb0d2	-0.07650913
96	0xbd259dbf	-0.04043364
97	0x3ccd8cf0	0.025091618
98	0x3d96f020	0.07370019
99	0x3caa5981	0.020794632
100	0xbc88b8c6	-0.01668967
101	0xbd8841d9	-0.066531844
102	0x3da30887	0.07960611
103	0x3ce8e745	0.02843059
104	0x3ce48e29	0.027899818
105	0xbd0c6b66	-0.03428211
106	0xbd6d02be	-0.057863943
107	0x3bd55d34	0.006511355
108	0x3bf4a058	0.0074654035
109	0xbc56acb9	-0.013102704
110	0xbdaa7e93	-0.08324923
111	0xbb55b36b	-0.0032608162
112	0xbcb57cba	-0.0221542
113	0xbcb856ae	-0.02250227
114	0xbb7c1997	-0.0038467401
115	0xbcf08b62	-0.029363338
116	0xbd06d423	-0.032917153
117	0x3c859363	0.016305631
118	0x3d1f1d18	0.038846105
119	0xbd66d248	-0.056352884
120	0xbd2d4367	-0.042300608
121	0xbd995361	-0.074866064
122	0x3d49d114	0.049271658
123	0x3d88ef77	0.06686299
124	0xbb87cf08	-0.004144553
125	0xbd8e74c5	-0.06955866
126	0xbd6126ed	-0.054968763
127	0x3d9202ca	0.07129438
128	0xbd449d43	-0.04800154
129	0x3d648940	0.055794954
130	0x3d9e4150	0.07727301
131	0x3d274026	0.04083266
132	0x3d88e2bf	0.066838734
133	0xbd402ab7	-0.046915736
134	0x3d00a5d5	0.03140815
135	0xbc92e642	-0.017932061
136	0xbd93009b	-0.0717785
137	0xbd169528	-0.03676334
138	0x3db30f24	0.08743122
139	0x3d524a36	0.051340304
140	0xbc9d4d75	-0.019201973
141	0xbd9471c7	-0.07248264
142	0xbd5d8997	-0.054086294
143	0x3c8ff160	0.017571151
144	0xbd9f3af0	-0.07774913
145	0x3d9ae094	0.07562366
146	0xbda21166	-0.07913475
147	0x3d980748	0.07423264
148	0x3d846ed2	0.0646645
149	0xbbec6908	-0.007214669
150	0xbcfdeb24	-0.030995913
151	0x3cc1c044	0.02365125
152	0xbd36a3cd	-0.044589806
153	0xbd0c8dd5	-0.03431495
154	0x3d629c82	0.05532504
155	0x3db179b2	0.0866579
156	0x3d084e7a	0.033277966
157	0xbd5d9ed0	-0.054106534
158	0xbd17abdf	-0.037029143
159	0xbdb4223e	-0.08795594
160	0x3cef5654	0.02921597
161	0xbc197eaf	-0.009368583
162	0xbda43b72	-0.08019151
163	0x3d89930a	0.067174986
164	0x3d69fefc	0.057127938
165	0xbd8a6090	-0.06756699
166	0x3cd41a97	0.025891585
167	0x3d1a9623	0.037740838
168	0xbd4c6910	-0.049904883
169	0xbd9445c8	-0.07239872
170	0xbd63c0b7	-0.05560371
171	0x3d771b48	0.06032875
172	0xbd79c1af	-0.060975727
173	0x3d00899a	0.031381227
174	0x3cb3683e	0.021900292
175	0xbd2fdd0e	-0.042935424
176	0xbd30d52a	-0.04317204
177	0x3cc202ed	0.023683036
178	0xbc66b90a	-0.014082203
179	0xbce0ce89	-0.027442234
180	0x3d597fe0	0.053100467
181	0xbd10fd10	-0.03539759
182	0xbda704c4	-0.08155206
183	0xbcae971a	-0.021312285
184	0xbc4c4a82	-0.012468936
185	0xbcb5115c	-0.022103004
186	0x3d0023d0	0.031284153
187	0xbd1ff4eb	-0.03905193
188	0xbb3b61de	-0.002859227
189	0x3da1396f	0.07872283
190	0x3c879dbf	0.016554711
191	0xbb7e3975	-0.0038791571
192	0xbd02c328	-0.031924397
193	0x3cecbdee	0.02889916
194	0xbd9c298e	-0.076251134
195	0x3d86416e	0.065554485
196	0x3d675cca	0.056484975
197	0x3c264f84	0.010150794
198	0x3d57203d	0.05252098
199	0xbc2bda9b	-0.010489131
200	0xbda24dcd	-0.079249956
201	0x3d163a90	0.036676943
202	0x3c4a9d6c	0.012366634
203	0xbd5bf4c7	-0.053700235
204	0xbd73299c	-0.059365854
205	0x3db28951	0.08717597
206	0xbd213d78	-0.03936526
207	0xbc80c244	-0.015717633
208	0xbbe39442	-0.006945164
209	0x3d806829	0.06269867
210	0xbd8c3533	-0.068460844
211	0x3c29ef27	0.01037196
212	0xbd3ba7f0	-0.045814455
213	0x3c2f3ca7	0.010695613
214	0xbd48b73d	-0.049002875
215	0xbdab14e2	-0.083535925
216	0xbcfe7c45	-0.031065116
217	0x3d1394c4	0.036030546
218	0x3d9dd085	0.077057876
219	0x3cefc16c	0.029267035
220	0xbd91071c	-0.07081434
221	0xbd7889fa	-0.06067846
222	0xbd02bfc8	-0.031921178
223	0xbce6afd8	-0.02816002
224	0x3c3be71a	0.011468673
225	0xbcbbd264	-0.02292747
226	0xbcc2d14c	-0.023781441
227	0xbd811c60	-0.0630424
228	0xbb47f791	-0.0030512551
229	0xbbed4fa1	-0.0072421585
230	0xbd292f08	-0.041304618
231	0xbca21032	-0.019783113
232	0x3cba1e9e	0.022719678
233	0x3d9ffd0c	0.07811937
234	0xbd699fc7	-0.05703714
235	0xbd83137e	-0.06400202
236	0x3d6712d3	0.056414437
237	0xbcfbad11	-0.030722173
238	0x3cbb71db	0.022881439
239	0x3da81d0e	0.08208667
240	0x3d197e21	0.0374738
241	0x3d834b5d	0.06410859
242	0xbb7c3d6b	-0.0038488756
243	0xbc0ef31c	-0.008724954
244	0x3d8f182d	0.06987033
245	0xbd828e7f	-0.06374835
246	0xbab13e3b	-0.0013522574
247	0x3d90aef0	0.07064617
248	0x3d219119	0.039445017
249	0x3cfcb637	0.030848606
250	0xbc272390	-0.01020135
251	0x3d944d59	0.072413154
252	0xbcb64770	-0.02225086
253	0x3daf3216	0.08554475
254	0x3d9d91b1	0.07693804
255	0x3c8eb686	0.017421018

bias f4 [64]
0	0x3d56279c	0.05228387
1	0xbdaba09f	-0.083802454
2	0x3c4d1c4b	0.012518953
3	0xbcb20ab4	-0.02173362
4	0xbd96baf2	-0.07359876
5	0xba429f3b	-0.000742424
6	0x3c39d2bb	0.011341746
7	0x3d8880bf	0.06665181
8	0xbd9ccf0a	-0.07656677
9	0x3d2567db	0.040382247
10	0x3d7464b7	0.05966636
11	0x3d8fc9f1	0.07020939
12	0xbdaae44a	-0.08344324
13	0xbcc66dff	-0.024222372
14	0xbd279aa7	-0.040918972
15	0x3d095e61	0.033537272
16	0xbd9c1320	-0.07620835
17	0xbc7d1ae3	-0.015448305
18	0xbd9228f4	-0.071367174
19	0x3c8e6564	0.017382331
20	0xbd4b5803	-0.04964448
21	0xbd5fe87f	-0.054665085
22	0xbd235028	-0.039871365
23	0x3c87ff8e	0.01660135
24	0xbd93b276	-0.07211773
25	0xbb8b9b1b	-0.0042604334
26	0xbd890210	-0.066898465
27	0x3b5776eb	0.0032877277
28	0x3d9941a9	0.07483227
29	0x3c8e008f	0.01733425
30	0x3d2a6f9b	0.04161034
31	0x3bc7cf6f	0.006097726
32	0x3d076ce2	0.033062823
33	0xbc586a86	-0.013208991
34	0xbc0bc2c8	-0.008530326
35	0x3d9cb32a	0.0765136
36	0x3d65b7ae	0.056083374
37	0x3d37648d	0.044773627
38	0x3da8eb94	0.08248058
39	0xbd126783	-0.035743248
40	0x3d2459dd	0.040124763
41	0xbda5e963	-0.081011556
42	0x3d9634d2	0.073342934
43	0xbce7a01f	-0.028274594
44	0x3d11898d	0.03553157
45	0x3d7f44fb	0.062321644
46	0xbab32e74	-0.001367046
47	0x3d86dc2a	0.06584962
48	0xbd6b0b5b	-0.057383876
49	0xbd9d3cff	-0.0767765
50	0x3d04e8ea	0.032448687
51	0x3d52645f	0.051365253
52	0xbd31d820	-0.043419003
53	0xbd8e0943	-0.0693536
54	0x3ce72d93	0.028219974
55	0x3db3bd82	0.0877638
56	0xbd0c9279	-0.034319375
57	0xbd51996a	-0.051171698
58	0xbd19d0f1	-0.037552778
59	0xbd4e75ce	-0.050405316
60	0xbd9af457	-0.075661354
61	0x3d4c307e	0.049850933
62	0x3d756e6c	0.05991976
63	0x3baa4d46	0.0051972
