model/13-07-23-21_12.pth (torch, 169663 bytes, 30 tensors)

weight f4 [16, 1, 128]
-0.007305702 -0.0029185486 -0.033028338 0.020438712 -0.05045983 -0.015590843 0.034171544 0.08285551
0.020758346 -0.029967755 0.008463177 -0.009873732 0.036108833 0.010163394 0.03464912 0.08571177
-0.036603145 -0.003075694 0.0203774 -0.0004697331 -0.008356766 -0.07810368 -0.0761273 -0.07941742
-0.08636667 -0.082205266 -0.06684702 -0.07961192 -0.08287071 0.038660247 0.054120976 0.05963155
0.04752861 0.029857572 0.038855612 -0.04883405 0.07958088 -0.0059930217 0.07626955 0.027117716
0.06912482 0.07043604 -0.018433407 -0.025598284 0.013404941 -0.0036444254 0.013929458 0.04486996
-0.068948604 -0.0039396277 -0.06925018 0.08528853 -0.06206472 0.016824167 -0.024145927 0.050263345
0.0004171488 -0.008767813 0.06480926 0.080816805 -0.064032584 -0.08514469 0.0073294374 0.027772779
0.020129811 0.08153285 0.039621856 -0.040538777 -0.060405437 0.068693295 0.08483599 -0.041819442
-0.056451105 0.030833704 -0.06324181 -0.021417066 -0.0873068 0.024218407 -0.030024303 -0.049334727
-0.056092456 -0.030987833 0.04208053 0.0051194974 0.076132186 -0.031474862 -0.025758624 0.08640269
-0.0841872 -0.03468325 -0.054717857 0.08494422 0.047008973 -0.02949601 -0.03740326 0.027214626
-0.029763049 0.027395608 -0.045207202 -0.054639082 -0.002216681 0.051790662 0.07517658 0.019595332
-0.05238165 0.046307534 0.034576874 0.03780763 -0.029352108 -0.011819891 0.040854257 0.036607713
0.058741603 -0.052906986 0.055492066 -0.03428598 -0.002133163 -0.04148878 -0.026091434 0.059488356
0.07539641 0.030728724 -0.06622114 -0.032546636 0.06127902 -0.023801303 -0.072147325 0.020499155
-0.0785121 -0.00065784884 -0.010991108 0.000723109 -0.021168305 -0.013040771 -0.053554397 -0.058480922
0.028892338 0.079606645 -0.07073598 -0.0835576 -0.047927074 0.08471896 0.07942775 -0.086007185
0.021316405 0.011799115 0.077965006 -0.026616897 0.029027889 -0.043685026 -0.0824594 0.009875005
-0.04276571 -0.0056569385 -0.019640623 -0.07160686 0.051626153 0.06091801 0.06746447 0.011347011
-0.08358803 -0.070803575 -0.009411623 -0.009294023 -0.08034476 0.05465905 -0.066018574 -0.0026051265
-0.08442837 0.024697702 0.0002915155 0.061019868 0.014731301 -0.069783136 0.08321596 -0.07614949
0.042309713 -0.061664972 0.04757088 0.021939822 0.023538351 -0.021162627 0.0805357 0.086036354
-0.009267523 -0.02828652 0.013614703 0.05677422 0.082114786 0.08021396 0.04097124 0.010090481
-0.0649695 -0.06747911 0.059644517 -0.07975035 -0.00404056 0.071669504 -0.076482184 -0.06144993
-0.08797489 0.04781065 0.01879962 0.053210307 -0.011978637 -0.028733678 0.07410512 -0.057758566
-0.05685969 0.060359895 0.081604496 -0.045440264 -0.08468386 0.0041980324 -0.00079740566 0.02616872
0.04725939 0.009685823 -0.057169843 -0.006207938 0.04068669 0.014371942 -0.060661305 -0.0054325988
-0.01646551 -0.038223702 0.04470756 0.034608763 0.074530035 0.07369568 -0.0034977111 -0.07142054
0.028943362 0.046104424 0.05290181 0.053630974 0.048023317 0.018898467 0.0057881875 0.043870896
-0.08743802 0.043459874 0.024457512 0.023438564 -0.024572575 0.025271058 0.020812098 -0.0861012
-0.04164527 0.043982644 -0.061371118 -0.031511802 0.0512798 0.04525918 -0.06832525 0.039264835
00000000: ac64 efbb 1f45 3fbb b948 07bd 166f a73c
00000010: f7ae 4ebd bc70 7fbc 76f7 0b3d 26b0 a93d
00000020: 680d aa3c f07e f5bc 23a9 0a3c 6fc5 21bc
00000030: dbe6 133d 5d84 263c 3cec 0d3d a789 af3d
00000040: 2eed 15bd 9591 49bb 81ee a63c 8246 f6b9
00000050: d1ea 08bc d2f4 9fbd a1e8 9bbd 9aa5 a2bd
00000060: 02e1 b0bd 3c5b a8bd 17e7 88bd 930b a3bd
00000070: 1eb8 a9bd 355a 1e3d f5ad 5d3d 3640 743d
00000080: 5cad 423d de97 f43c 1027 1f3d 3606 48bd
00000090: 4dfb a23d 1c61 c4bb 3633 9c3d f925 de3c
000000a0: 5091 8d3d c540 903d a801 97bc 7eb3 d1bc
000000b0: 66a0 5b3c 50d7 6ebb 6238 643c 90c9 373d
000000c0: ed34 8dbd fe17 81bb 0ad3 8dbd c1ab ae3d
000000d0: 9337 7ebd d6d2 893c aecd c5bc f0e0 4d3d
000000e0: c4b4 da39 e0a6 0fbc b8ba 843d 4883 a53d
000000f0: 8423 83bd 5760 aebd c72b f03b bd83 e33c
00000100: 46e7 a43c b2fa a63d 874a 223d fd0b 26bd
00000110: b16b 77bd 12af 8c3d 7ebe ad3d dd4a 2bbd
00000120: 4639 67bd f796 fc3c ec84 81bd d872 afbc
00000130: e8cd b2bd ae65 c63c 87f5 f5bc 3613 4abd
00000140: 34c1 65bd 32da fdbc a25c 2c3d 75c1 a73b
00000150: 31eb 9b3d c9eb 00bd c003 d3bc e5f3 b03d
00000160: 576a acbd 0610 0ebd d51f 60bd 3cf7 ad3d
00000170: 7b8c 403d 9ea1 f1bc 2934 19bd 35f1 de3c
00000180: a3d1 f3bc c16c e03c 302b 39bd 3bcd 5fbd
00000190: bc45 11bb 7222 543d 2ef6 993d 6486 a03c
000001a0: 248e 56bd f8ac 3d3d 7ba0 0d3d 2cdc 1a3d
000001b0: d573 f0bc 37a8 41bc cb56 273d f8f1 153d
000001c0: 099b 703d ffb4 58bd a64b 633d 756f 0cbd
000001d0: 89cc 0bbb 24f0 29bd b4bd d5bc 10aa 733d
000001e0: 6f69 9a3d ceba fb3c f39e 87bd 9f4f 05bd
000001f0: b6ff 7a3d f3fa c2bc fac1 93bd d8ed a73c
00000200: f4ca a0bd 7d73 2cba 0c14 34bc 068f 3d3a
00000210: 2769 adbc f5a8 55bc db5b 5bbd b189 6fbd
00000220: a0af ec3c cf08 a33d 07de 90bd 3f20 abbd
00000230: 2e4f 44bd 2281 ad3d 04ab a23d 8924 b0bd
00000240: be9f ae3c 1351 413c 1eac 9f3d ae0b dabc
00000250: e5cb ed3c 12ef 32bd 79e0 a8bd c6ca 213c
00000260: 192b 2fbd d75d b9bb 5fe5 a0bc 9ea6 92bd
00000270: f275 533d 2a85 793d d02a 8a3d d0e8 393c
00000280: 3330 abbd 7701 91bd 3533 1abc f545 18bc
00000290: cb8b a4bd 2be2 5f3d bf34 87bd c5ba 2abb
000002a0: c8e8 acbd d652 ca3c 8cd6 9839 f8ef 793d
000002b0: 8e5b 713c 76ea 8ebd 216d aa3d 44f4 9bbd
000002c0: f34c 2d3d 6994 7cbd afd9 423d 24bb b33c
000002d0: 80d3 c03c 3f5d adbc e7ef a43d d433 b03d
000002e0: cfd6 17bc 22b9 e7bc 3410 5f3c 168c 683d
000002f0: cc2b a83d 3747 a43d 75d1 273d 8b52 253c
00000300: bb0e 85bd 7d32 8abd cf4d 743d 2754 a3bd
00000310: ad66 84bb 76c7 923d b1a2 9cbd ecb2 7bbd
00000320: 2e2c b4bd 1ad5 433d a901 9a3c 0df3 593d
00000330: 0c42 44bc e462 ebbc 6dc4 973d 3f94 6cbd
00000340: b5e5 68bd f03b 773d 4220 a73d 921f 3abd
00000350: bb6e adbd a68f 893b fd08 51ba c95f d63c
00000360: 1093 413d 49b1 1e3c ed2a 6abd f56b cbbb
00000370: 16a7 263d 4b78 6b3c fd77 78bd f103 b2bb
00000380: ade2 86bc 7590 1cbd 461f 373d ebc1 0d3d
00000390: 34a3 983d c3ed 963d db39 65bb ef44 92bd
000003a0: a11a ed3c fed7 3c3d 91af 583d 27ac 5b3d
000003b0: 19b4 443d f5d0 9a3c d6aa bd3b f8b1 333d
000003c0: b412 b3bd fb02 323d 1f5b c83c 3b02 c03c
000003d0: 6d4c c9bc 4005 cf3c 227e aa3c d355 b0bd
000003e0: 3b94 2abd 2527 343d 4860 7bbd 8512 01bd
000003f0: c40a 523d b161 393d 1cee 8bbd 2ad4 203d

bias f4 [16]
0.024123944 0.050541054 0.0489371 -0.060652167 0.056965224 0.017933493 0.032434613 -0.06366498
-0.019674057 -0.07705548 0.07934072 0.025803462 0.052321803 -0.033279426 -0.046092622 -0.08481682
00000000: 949f c53c 2304 4f3d 4572 483d 686e 78bd
00000010: 5e54 693d 43e9 923c 28da 043d c962 82bd
00000020: 7d2b a1bc 43cf 9dbd 637d a23d c861 d33c
00000030: 634f 563d 0250 08bd 9ecb 3cbd 71b4 adbd

weight f4 [16]
0.9998749 0.9998749 0.99987525 0.9998752 0.999875 0.9998751 0.9998753 0.999875
0.9998753 0.9998752 0.9998751 0.9998755 0.99987495 0.9998751 0.99987507 0.99987507
00000000: cdf7 7f3f cdf7 7f3f d3f7 7f3f d2f7 7f3f
00000010: cff7 7f3f d1f7 7f3f d4f7 7f3f cff7 7f3f
00000020: d4f7 7f3f d2f7 7f3f d1f7 7f3f d7f7 7f3f
00000030: cef7 7f3f d1f7 7f3f d0f7 7f3f d0f7 7f3f

bias f4 [16]
-3.757305e-05 -5.705817e-05 -7.248059e-05 6.927643e-05 6.97871e-05 -0.00010012431 4.3763586e-05 8.2750834e-05
-6.022842e-05 -1.5676194e-05 7.736383e-05 6.952743e-05 8.9846435e-05 8.904691e-05 -6.483964e-05 7.5617296e-05
00000000: c197 1db8 be51 6fb8 b800 98b8 8048 9138
00000010: aa5a 9238 d4f9 d1b8 cb8e 3738 848a ad38
00000020: c69d 7cb8 5f80 83b7 643e a238 41cf 9138
00000030: f06b bc38 b2be ba38 84fa 87b8 ba94 9e38

running_mean f4 [16]
0.01574719 0.032956883 0.03191304 -0.039544318 0.037142605 0.0117213195 0.021162901 -0.041506365
-0.012837747 -0.05022914 0.051717836 0.01684407 0.034119543 -0.021711815 -0.03005928 -0.055284206
00000000: 4000 813c ccfd 063d 3fb7 023d 39f9 21bd
00000010: d822 183d c70a 403c d25d ad3c 9402 2abd
00000020: 6a55 52bc 12bd 4dbd 15d6 533d 93fc 893c
00000030: efc0 0b3d fadc b1bc e13e f6bc b171 62bd

running_var f4 [16]
0.3486791 0.34867892 0.34867883 0.3486789 0.34867892 0.34867927 0.34867918 0.3486791
0.34867924 0.34867877 0.3486787 0.34867886 0.3486791 0.34867933 0.3486791 0.34867945
00000000: 1186 b23e 0b86 b23e 0886 b23e 0a86 b23e
00000010: 0b86 b23e 1786 b23e 1486 b23e 1186 b23e
00000020: 1686 b23e 0686 b23e 0486 b23e 0986 b23e
00000030: 1186 b23e 1986 b23e 1186 b23e 1d86 b23e

weight f4 [16, 16, 64]
-0.0015067329 0.0069309343 0.0033576605 0.008001388 -0.02551971 -0.03088063 -0.017419025 -0.02933019
0.0045342417 -0.020339707 0.0038084227 -0.0058313506 0.013967087 0.009430899 0.022248419 0.00047655893
-0.010371239 0.014011849 0.01502055 0.018212043 -0.0072695753 -0.010579732 -0.0184375 0.009975821
0.0046881395 -0.019213304 -0.013035894 0.0057299472 -0.00076431106 0.0069878194 -0.028621485 0.015211543
0.0053313626 -0.02792704 0.029614741 0.030587846 -0.005335186 -0.0032026675 0.016556676 0.0036450154
-0.023179049 0.03061192 0.028323388 -0.020713687 -0.008300863 0.0018497597 0.02212579 -0.018649224
0.007949932 0.025757559 0.003836391 0.017132211 -0.01687894 0.020605784 0.00092548673 -0.01179358
0.0021872073 -0.01995904 -0.019749265 -0.0043087355 -0.0016159923 -0.0009698256 0.0055288416 0.024704266
-0.017332524 0.012157688 0.0011324012 -0.008316229 -0.025626447 -0.0030955942 0.03023063 -0.005723682
-0.013590766 0.024955891 -0.02205789 -0.017970843 -0.0032379131 -0.0042838883 -0.019719988 0.015350256
0.025489377 -0.008169543 0.012271349 0.006882212 0.008846709 0.018067358 0.00079537503 -0.0018783663
-0.0053157113 -0.019553062 -0.015637992 -0.004426791 -0.0012167654 0.006850597 0.012250701 -0.018983597
0.0049184724 0.012425818 -0.029171467 0.0133281965 0.011550596 -0.027987441 -0.017360836 0.014437403
0.01926046 0.0057618576 0.011685202 -0.024343293 -0.029935071 -0.007928987 -0.011025708 -0.016073657
0.025440244 -0.011984361 -0.0020544895 -0.015466127 -0.026916638 0.01119136 0.015354463 -0.018523185
-0.027798789 0.014307209 -0.015809312 0.028211813 0.011249649 0.02634823 0.022169037 -0.0077844616
-0.006971359 -0.0075285253 -0.020503972 -0.022206467 0.015063626 -0.02438758 -0.01294104 -0.004670021
-0.021576872 -0.0033289504 0.025627423 0.0057413545 -0.022360312 -0.009569501 -0.012896951 0.0009206513
0.0018043268 0.01640029 0.020691533 -0.02686685 -0.014227521 -0.0073257782 0.018805414 0.015010734
0.014546824 0.0032525216 0.020359281 0.009994167 -0.012009028 0.023083793 -0.011940976 0.006410818
-0.007629573 0.011757423 -0.00975685 -0.008245026 0.008846756 -0.017719122 0.027459372 -0.015313456
0.0064419913 -0.022080576 0.01344716 -0.019489484 0.011431249 0.008888689 0.02139218 -0.0060669584
-0.018817542 -0.029388675 -0.013866415 -0.024455344 -0.021286149 -0.028507367 0.029119791 0.030192336
-0.012601448 0.00063053233 -0.0045929733 0.014722998 0.0049440535 0.01721931 0.01275158 -0.008205144
0.011747319 0.017690454 0.028884776 -0.03038788 0.015138514 -0.01907492 0.004535587 0.018182376
-0.019015066 0.0013734957 -0.027090635 0.0066721365 -0.02812772 0.018665701 0.013322672 -0.015049622
0.0053569362 -0.008811078 0.0038582832 -0.026303528 -0.0046314355 0.009869157 -0.02118061 0.022748273
-0.014422194 0.012732798 0.005588102 -0.012361985 -0.004515196 0.0021501025 0.015914964 -0.0004817145
0.008279472 0.024066126 -0.0012886157 0.01771956 -0.023323705 0.012914385 -0.027719788 -0.004407523
0.021653885 0.024910212 0.024090365 0.015786426 -0.017312782 0.018381927 -0.01818002 0.017520038
0.0074110418 -0.021160873 0.0036140864 -0.02236228 0.009209079 0.027535187 0.021537555 0.029528096
0.019551747 -0.029291706 0.004921422 0.004081178 -0.029305404 0.0019704457 -0.029070856 -0.011305651
00000000: 917d c5ba e41c e33b 320c 5c3b 4118 033c
00000010: b60e d1bc 60f9 fcbc 58b2 8ebc de45 f0bc
00000020: fa93 943b 759f a6bc bb96 793b ea14 bfbb
00000030: 35d6 643c 0f84 1a3c 5142 b63c a8da f939
00000040: 21ec 29bc f491 653c c118 763c 6c31 953c
00000050: 9e35 eebb 9d56 2dbc 3d0a 97bc a071 233c
00000060: f79e 993b 3865 9dbc 8194 55bc 48c2 bb3b
00000070: 0c5c 48ba 14fa e43b 9b77 eabc d639 793c
00000080: b6b2 ae3b 3fc7 e4bc 9d9a f23c 5d93 fa3c
00000090: c9d2 aebb d8e3 51bb dea1 873c 36e1 6e3b
000000a0: fde1 bdbc d9c5 fa3c 7306 e83c c0af a9bc
000000b0: 5800 08bc a373 f23a 2541 b53c 42c6 98bc
000000c0: 6e40 023c 8401 d33c f66b 7b3b da58 8c3c
000000d0: b445 8abc 76cd a83c 5d9c 723a dc39 41bc
000000e0: 4057 0f3b 2481 a3bc 36c9 a1bc 4b30 8dbb
000000f0: b4cf d3ba e53b 7eba 492b b53b 9a60 ca3c
00000100: f0fc 8dbc 0a31 473c 146d 943a cb40 08bc
00000110: 8eee d1bc 74df 4abb 3aa6 f73c ba8d bbbb
00000120: ceab 5ebc 4c70 cc3c c0b2 b4bc 9737 93bc
00000130: 2b33 54bb dc5f 8cbb d08b a1bc a47f 7b3c
00000140: 19cf d03c 8cd9 05bc c50d 493c 2e84 e13b
00000150: c9f1 103c ff01 943c b780 503a 8433 f6ba
00000160: 6b2f aebb be2d a0bc 3f1b 80bc 9d0e 91bb
00000170: df7b 9fba f97a e03b 2ab7 483c 7d83 9bbc
00000180: 232b a13b a895 4b3c 00f9 eebc 825e 5a3c
00000190: b63e 3d3c eb45 e5bc 5038 8ebc db8a 6c3c
000001a0: 1dc8 9d3c f7cd bc3b 4a73 3f3c 966b c7bc
000001b0: 653a f5bc 95e8 01bc 2ca5 34bc e7ac 83bc
000001c0: 0f68 d03c 0e5a 44bc 9da4 06bb a365 7dbc
000001d0: 4880 dcbc f75b 373c 4991 7b3c efbd 97bc
000001e0: 49ba e3bc c968 6a3c 8882 81bc 761c e73c
000001f0: 7350 383c 3ed8 d73c d79b b53c cc14 ffbb
00000200: ff6f e4bb d9b1 f6bb f2f7 a7bc 56ea b5bc
00000210: 6dcd 763c 76c8 c7bc a806 54bc fa06 99bb
00000220: fbc1 b0bc 852a 5abb 9af0 d13c f921 bc3b
00000230: f92c b7bc 65c9 1cbc bc4d 53bc dd57 713a
00000240: 297f ec3a e759 863c 4a81 a93c de17 dcbc
00000250: 8c1a 69bc 150d f0bb d00d 9a3c 95ef 753c
00000260: cd55 6e3c 4228 553b 82c8 a63c 93be 233c
00000270: 84c1 44bc 391a bd3c 15a4 43bc d711 d23b
00000280: 7f01 fabb 35a2 403c 32db 1fbc 2516 07bc
00000290: fcf1 103c b127 91bc 7af2 e03c 4ae5 7abc
000002a0: 5717 d33b 53e2 b4bc 7a51 5c3c 69a8 9fbc
000002b0: 224a 3b3c dda1 113c a73e af3c 56cd c6bb
000002c0: 3f27 9abc 85c0 f0bc f62f 63bc 9356 c8bc
000002d0: 4a60 aebc 4888 e9bc a18c ee3c eb55 f73c
000002e0: 4e76 4ebc 4f4a 253a a780 96bb bb38 713c
000002f0: ba01 a23b 830f 8d3c 01ec 503c de6e 06bc
00000300: d477 403c 92eb 903c c49f ec3c 01f0 f8bc
00000310: 8807 783c 0243 9cbc 439f 943b 35f3 943c
00000320: 7cc5 9bbc de06 b43a 2eed ddbc f0a1 da3b
00000330: 1b6c e6bc d0e8 983c 5647 5a3c b192 76bc
00000340: 3d89 af3b 575c 10bc 40db 7c3b 7f7a d7bc
00000350: 4cc3 97bb 3fb2 213c f582 adbc 965a ba3c
00000360: 114b 6cbc 3a9d 503c 661c b73b ec89 4abc
00000370: 36f4 93bb bce8 0c3b 1960 823c a08e fcb9
00000380: 9fa6 073c 5326 c53c c5e6 a8ba 9c28 913c
00000390: 5b11 bfbc db96 533c 9c14 e3bc fc6c 90bb
000003a0: 7d63 b13c 8010 cc3c 2859 c53c 8952 813c
000003b0: 89d3 8dbc b295 963c 44ee 94bc 2f86 8f3c
000003c0: 53d8 f23b 9159 adbc 4fda 6c3b 1a31 b7bc
000003d0: ade1 163c 7991 e13c 876f b03c e8e4 f13c
000003e0: fc2a a03c 29f5 efbc e143 a13b 67bb 853b
000003f0: e311 f0bc 9822 013b 0126 eebc 563b 39bc

bias f4 [16]
0.008806769 0.01545776 -0.01895847 -0.0023096409 -0.010929486 0.007964448 0.029515559 0.014228771
0.0018604519 -0.011631666 0.016820703 -0.014822861 -0.022013493 0.011431372 -0.018465085 -0.028849982
00000000: 444a 103c 8b42 7d3c cb4e 9bbc 585d 17bb
00000010: 9611 33bc 517d 023c 9dca f13c cb1f 693c
00000020: 68da f33a be92 3ebc 92cb 893c 96db 72bc
00000030: a455 b4bc a64a 3b3c 1744 97bc cc56 ecbc

weight f4 [16]
0.99987537 0.99987507 0.999875 0.9998752 0.9998752 0.9998751 0.99987525 0.9998751
0.99987495 0.99987507 0.99987495 0.9998751 0.9998749 0.9998753 0.9998751 0.99987507
00000000: d5f7 7f3f d0f7 7f3f cff7 7f3f d2f7 7f3f
00000010: d2f7 7f3f d1f7 7f3f d3f7 7f3f d1f7 7f3f
00000020: cef7 7f3f d0f7 7f3f cef7 7f3f d1f7 7f3f
00000030: cdf7 7f3f d4f7 7f3f d1f7 7f3f d0f7 7f3f

bias f4 [16]
9.029215e-06 -2.1573182e-05 2.4252577e-05 -4.848094e-06 -4.8614867e-05 -6.403027e-07 6.3664393e-06 -2.0346119e-05
3.785179e-06 1.6062173e-05 -1.9128114e-05 2.4498806e-05 -3.1138413e-06 2.6986438e-05 8.669765e-06 -1.8889032e-05
00000000: 2f7c 1737 0ef8 b4b7 0372 cb37 cfac a2b6
00000010: d1e7 4bb8 44e1 2bb5 4c9f d536 f5ac aab7
00000020: e104 7e36 41bd 8637 5075 a0b7 c982 cd37
00000030: 63f7 50b6 ef60 e237 5b74 1137 e373 9eb7

running_mean f4 [16]
-0.0023516256 0.019877857 0.040510148 -0.014294414 -0.017456314 0.0024064556 -0.008373743 0.009645615
0.038254958 -0.016498271 0.03041373 -0.03534712 -0.007710663 -0.011230097 0.0026566242 -0.018627036
00000000: bb1d 1abb e3d6 a23c f8ed 253d 1e33 6abc
00000010: 8b00 8fbc a0b5 1d3b 0632 09bc a408 1e3c
00000020: 3bb1 1c3d 6227 87bc 3726 f93c 24c8 10bd
00000030: bba9 fcbb 71fe 37bc c21a 2e3b ba97 98bc

running_var f4 [16]
0.36323792 0.37266216 0.3621459 0.3667078 0.3759718 0.37522766 0.36694703 0.36509737
0.36384872 0.3621557 0.3699612 0.35706177 0.36913916 0.36538082 0.3607935 0.3690171
00000000: 52fa b93e 93cd be3e 306b b93e 20c1 bb3e
00000010: 607f c03e d71d c03e 7be0 bb3e 0bee ba3e
00000020: 614a ba3e 796c b93e 8e6b bd3e cdd0 b63e
00000030: cfff bc3e 3213 bb3e edb9 b83e cfef bc3e

weight f4 [16, 16, 32]
0.0020663894 -0.011566707 0.008870197 -0.026638668 0.017341543 -0.042188887 0.032256294 0.009866402
0.038171697 -0.039461214 -0.0199557 0.012915735 -0.011656346 -0.03860368 -0.042719413 -0.019440161
-0.027954942 0.03997798 0.0029520893 0.032464825 -0.043722983 -0.013625867 -0.028625814 -0.0110991215
-0.03406547 0.037315007 -0.03147934 0.013657434 -0.0021718352 0.007870389 0.031248374 -0.04142619
-0.007437015 -0.02944843 0.027322233 -0.018879442 0.005789221 0.029060107 0.037546188 -0.020396749
0.023233855 -0.039842173 0.0009885774 0.017777402 -0.03969931 0.02678146 0.002556391 0.033022664
0.008213536 0.015780214 0.016098274 0.020043964 -0.029720372 0.011553544 -0.030269874 -0.017849475
-0.0099391 0.0052599474 0.040505536 0.03351703 -0.008702906 -0.012735186 -0.020797528 -0.033912454
0.011986206 0.014588032 -0.014370759 -0.02996799 -0.02155597 -0.011916975 -0.0011893512 0.012064553
-0.00043209532 -0.031015188 0.0352338 0.027522523 0.024270484 -0.039131004 -0.014909615 0.028666195
-0.023618631 -0.017565696 -0.018851051 -0.01541994 -0.0011869606 -0.01563228 -0.043977473 -0.021260055
-0.032088943 0.008320523 -0.040273186 0.037649725 0.043313626 -0.0193436 -0.012232585 -0.025256282
0.005154824 -0.032982048 0.0011356863 0.041048907 0.03819705 0.03236494 -0.014032723 -0.03478807
-0.007797826 0.027996598 -0.0222405 0.040834155 0.011230021 0.015084367 -0.026661338 0.017237416
0.04274602 -0.02146693 0.028061472 0.0098565435 -0.0019278283 0.042195354 0.035671357 -0.034909856
-0.026799455 -0.0009767395 -0.020645242 0.042937893 0.027160255 -0.037843227 0.017337406 -0.02430977
-0.03706712 0.0005315395 0.023100648 0.034638967 0.020779852 0.014273316 0.034573466 -0.0032819605
0.035420563 0.0017056762 -0.028632905 0.006076088 -0.006705023 -0.039526887 0.043061033 0.034611642
0.0015191678 0.013392691 -0.008760128 0.027558237 0.025715657 -0.025757086 -0.021794148 0.03544715
0.010576879 -0.041573122 0.039344344 0.015455621 -0.0014402965 -0.03263998 0.018114813 -0.03609795
-0.037580818 0.0020358702 0.038445104 0.013552292 0.04262262 -0.025185663 -0.00493588 0.00070382236
-0.01659639 0.015959393 0.0062820064 -0.0050985026 0.0438995 0.014270286 0.011673791 -0.03305312
0.032302048 -0.04225427 -0.02667701 -0.004198461 -0.04358262 0.0064775357 0.038065355 0.005394268
0.008361184 0.02740641 -0.0076987105 0.02137234 0.025578698 0.029057397 0.0048257974 -0.030960983
-0.020473829 0.0014031763 0.016866554 0.00043037368 -0.023770012 -0.0061345 0.011914049 -0.020855062
-0.013160999 0.02298994 -0.020641435 -0.034032878 -0.01617501 -0.03288544 0.012509892 0.004167039
0.0064512985 -0.025189728 -0.02075302 -0.03438296 -0.035499867 0.010785343 0.01238946 0.03471565
0.0019595034 0.008012791 -0.0007406216 -0.041201662 0.0044435933 -0.03133206 0.028920246 -0.03387719
0.006644765 0.0020162952 -0.038049 0.006730597 0.015782002 0.03955181 0.010126671 0.038807146
0.014203604 -0.036282547 0.01807648 -0.022749972 0.027535174 0.004268264 0.00669839 -0.005962406
0.03329041 0.031450585 -0.019324867 -0.031736597 0.021635715 0.0068480563 0.041452765 -0.011035944
0.022634026 -0.0046117664 0.03253986 -0.0056456574 0.03761311 0.010234591 -0.04310418 0.00016156906
00000000: 436c 073b 4982 3dbc 4e54 113c 5639 dabc
00000010: da0f 8e3c 41ce 2cbd 2d1f 043d b0a6 213c
00000020: ed59 1c3d 15a2 21bd 237a a3bc 859c 533c
00000030: 42fa 3ebc e41e 1ebd 8dfa 2ebd f940 9fbc
00000040: c301 e5bc f3bf 233d d777 413b d6f9 043d
00000050: df16 33bd 073f 5fbc af80 eabc 17d9 35bc
00000060: 3c88 0bbd 9fd7 183d 7bf0 00bd 6ec3 5f3c
00000070: 5955 0ebb cef2 003c 97fc ff3c 82ae 29bd
00000080: 34b2 f3bb d53d f1bc e0d2 df3c 0fa9 9abc
00000090: 81b3 bd3b 760f ee3c 08ca 193d 1517 a7bc
000000a0: ed54 be3c 8c31 23bd 2793 813a eaa1 913c
000000b0: be9b 22bd cb64 db3c 2089 273b c642 073d
000000c0: 1192 063c 8245 813c 87e0 833c 3d33 a43c
000000d0: 2378 f3bc 134b 3d3c 87f8 f7bc 1039 92bc
000000e0: 9bd7 22bc a35b ac3b 22e9 253d 2749 093d
000000f0: a296 0ebc 3ea7 50bc 945f aabc c9e7 0abd
00000100: cb61 443c a402 6f3c 5573 6bbc 6e7f f5bc
00000110: 2596 b0bc 6a3f 43bc 01e4 9bba 67aa 453c
00000120: da8a e2b9 9013 febc 5151 103d ea76 e13c
00000130: e5d2 c63c d547 20bd 7547 74bc 5ed5 ea3c
00000140: dc7b c1bc efe5 8fbc 856d 9abc eba3 7cbc
00000150: ca93 9bba 440f 80bc b921 34bd 9129 aebc
00000160: b26f 03bd ce52 083c 7ff5 24bd 9936 1a3d
00000170: a169 313d 7876 9ebc 2e6b 48bc 43e6 cebc
00000180: cce9 a83b 2f18 07bd 4fdb 943a e622 283d
00000190: 8374 1c3d 1991 043d 82e9 65bc ef7d 0ebd
000001a0: e884 ffbb 1f59 e53c b631 b6bc b741 273d
000001b0: 1ffe 373c 6c24 773c e168 dabc 7b35 8d3c
000001c0: 7316 2f3d 6adb afbc 2ce1 e53c 577d 213c
000001d0: 2faf fcba 09d5 2c3d 211c 123d a3fd 0ebd
000001e0: 888a dbbc f005 80ba 3620 a9bc a5df 2f3d
000001f0: 2f7f de3c 8001 1bbd 2d07 8e3c 4825 c7bc
00000200: b1d3 17bd 0357 0b3a 923d bd3c 97e1 0d3d
00000210: 823a aa3c a0da 693c e89c 0d3d 2916 57bb
00000220: 2715 113d ff90 df3a 8e8f eabc ec19 c73b
00000230: cfb5 dbbb f2e6 21bd c460 303d f0c4 0d3d
00000240: d01e c73a 046d 5b3c a486 0fbc d0c1 e13c
00000250: a4a9 d23c 8600 d3bc a489 b2bc 0831 113d
00000260: a54a 2d3c 9448 2abd 8927 213d 9339 7d3c
00000270: 55c8 bcba 80b1 05bd 8465 943c 72db 13bd
00000280: 58ee 19bd 3c6c 053b 9d78 1d3d 6f0a 5e3c
00000290: 0e95 2e3d 2a52 cebc 2abd a1bb b880 383a
000002a0: 27f5 87bc 46bd 823c 4ad9 cd3b 5711 a7bb
000002b0: f6cf 333d ebcd 693c 6e43 3f3c b562 07bd
000002c0: 274f 043d d012 2dbd bf89 dabc 3e93 89bb
000002d0: b083 32bd 8241 d43b 6bea 1b3d 66c2 b03b
000002e0: 59fd 083c 6883 e03c 7745 fcbb 0c15 af3c
000002f0: 6b8a d13c c709 ee3c b921 9e3b e3a1 fdbc
00000300: bbb8 a7bc c9ea b73a ba2b 8a3c c7a3 e139
00000310: 54b9 c2bc ea03 c9bb 2533 433c 3cd8 aabc
00000320: 3ba1 57bc 6655 bc3c 3a18 a9bc 0f66 0bbd
00000330: 7481 84bc e2b2 06bd 4af6 4c3c a88b 883b
00000340: 6a65 d33b b05a cebc 3d02 aabc 26d5 0cbd
00000350: 4f68 11bd 02b5 303c 29fd 4a3c ff31 0e3d
00000360: 036b 003b 1548 033c 4626 42ba 13c3 28bd
00000370: 909b 913b 0c56 00bd 27ea ec3c cfc2 0abd
00000380: 54bc d93b d223 043b 45d9 1bbd 578c dc3b
00000390: 4249 813c 1401 223d 56ea 253c 3ef4 1e3d
000003a0: 3cb6 683c 029d 14bd 2015 943c 265e babc
000003b0: 7291 e13c cbdc 8b3b 2b7e db3b 4960 c3bb
000003c0: 865b 083d 54d2 003d 2f4f 9ebc 3cfe 01bd
000003d0: 623d b13c a965 e03b 60ca 293d 1bd0 34bc
000003e0: fe6a b93c 4d1e 97bb 8448 053d 35ff b8bb
000003f0: 3410 1a3d fcae 273c 028e 30bd dd6a 2939

bias f4 [16]
-0.035160426 0.023491727 -0.03910574 -0.0103386985 -0.03097035 0.0037912484 0.03969089 -0.031552717
0.005444971 0.03645265 0.0109860655 0.037946798 0.0028377916 0.007850532 0.003640171 0.025797948
00000000: 6104 10bd b971 c03c 572d 20bd a563 29bc
00000010: 88b5 fdbc 9876 783b ea92 223d 6c3d 01bd
00000020: ba6b b23b 604f 153d e6fe 333c 1a6e 1b3d
00000030: 3efa 393b 859f 003c ef8f 6e3b 3856 d33c

weight f4 [16]
0.99987584 0.99987495 0.999875 0.99987507 0.99987507 0.999875 0.9998752 0.9998752
0.99987495 0.99987507 0.9998755 0.99987525 0.99987507 0.9998751 0.9998753 0.9998751
00000000: ddf7 7f3f cef7 7f3f cff7 7f3f d0f7 7f3f
00000010: d0f7 7f3f cff7 7f3f d2f7 7f3f d2f7 7f3f
00000020: cef7 7f3f d0f7 7f3f d7f7 7f3f d3f7 7f3f
00000030: d0f7 7f3f d1f7 7f3f d4f7 7f3f d1f7 7f3f

bias f4 [16]
-3.36216e-05 -0.00012165787 -0.00012431438 -0.00010847837 6.83288e-05 0.000112120666 0.00011202456 0.000103731385
-0.00011677285 -0.00010802451 -5.089321e-05 0.00012210399 5.1467825e-05 0.00012184214 5.4702326e-05 0.00010419136
00000000: eb04 0db8 9222 ffb8 635a 02b9 e27e e3b8
00000010: bf4b 8f38 5322 eb38 baee ea38 5d8a d938
00000020: f2e3 f4b8 388b e2b8 2b76 55b8 0a09 0039
00000030: 28df 5738 8085 ff38 2d70 6538 4f81 da38

running_mean f4 [16]
-0.070174545 0.004339643 -0.075291075 0.0029491037 0.021694135 -0.014219139 0.06397575 0.07166742
0.0088607455 -0.09740073 0.10190589 0.13836394 0.002224906 -0.020763332 -0.03374253 0.060021877
00000000: acb7 8fbd 9033 8e3b 3532 9abd c045 413b
00000010: e6b7 b13c 64f7 68bc b805 833d 5ec6 923d
00000020: a92c 113c 097a c7bd 09b4 d03d 47af 0d3e
00000030: bbcf 113b dd17 aabc 9b35 0abd 80d9 753d

running_var f4 [16]
0.3956066 0.45542765 0.44112006 0.5535329 0.50739956 0.4447004 0.49956426 0.47861543
0.431165 0.43394226 0.43326938 0.42681235 0.43613592 0.53129095 0.43693203 0.41044417
00000000: f38c ca3e d02d e93e 7dda e13e 55b4 0d3f
00000010: f0e4 013f c5af e33e e3c6 ff3e 150d f53e
00000020: a9c1 dc3e ae2d de3e 7cd5 dd3e 2687 da3e
00000030: 354d df3e af02 083f 8eb5 df3e bd25 d23e

weight f4 [16, 16, 3]
-0.107703835 -0.13186254 -0.059262082 0.09309033 0.13554296 0.085077174 -0.0660984 0.11211093
-0.14379816 -0.07846223 -0.046987444 -0.01189823 -0.13075097 0.096754625 -0.046077177 0.10583679
0.011546892 -0.04643152 -0.058840342 0.002737638 0.073218286 0.048238005 -0.03643129 0.08085938
0.09422828 0.08296371 -0.11727883 -0.14083375 -0.094015636 -0.027869912 0.0989086 0.09424981
0.056826625 0.013059667 0.11163864 -0.14379983 -0.058689356 -0.034415256 0.092042424 -0.11070195
-0.019401396 -0.06499522 0.09356467 -0.007216717 0.031853557 -0.057789054 0.06282583 0.012528775
-0.114880286 0.06295451 -0.066484526 -0.02127286 0.07189045 0.03195282 -0.10134543 0.050674874
0.09540688 0.05707005 -0.10627504 -0.0912322 0.08585834 -0.1305147 0.048673484 0.13456929
-0.1426121 0.08776568 -0.015576238 0.09537076 0.020378755 0.009374547 -0.08341386 0.03636382
0.07943372 -0.04642849 -0.011815424 0.077259414 -0.08034592 0.14411466 0.08701362 -0.058271505
-0.0034504267 0.09613578 0.09435689 -0.12296253 -0.025426492 -0.02266552 0.0008869213 -0.027217416
0.007939361 0.07817193 -0.055663917 0.10201468 -0.07898692 -0.124124914 0.13416411 0.059773345
-0.08434874 -0.066239975 0.0077294037 0.06532746 0.1296926 -0.0058323876 0.070968844 -0.1405834
0.13975567 -0.06492499 0.14105634 -0.003333037 0.011034024 -0.0038474677 0.044414345 -0.05168831
0.041520514 -0.021827942 0.025652854 0.09574641 -0.054353636 -0.1394509 0.074562185 0.14121157
0.019038705 0.041138522 0.1110411 0.13435553 -0.05380759 0.011544677 -0.109218225 -0.010252944
0.093967736 -0.007075537 -0.14405432 0.13455768 0.051183257 -0.09337506 -0.069158725 0.040844765
-0.040059946 -0.057463314 -0.12873751 -0.12883303 -0.102628835 0.09950437 0.010107416 0.019236421
0.12417503 0.08611187 -0.06812408 0.022220386 -0.049476076 0.13226072 0.00038647765 0.07112951
-0.03804328 0.11876983 -0.07897338 0.059844803 0.14374295 -0.018367838 0.09813918 0.07518147
0.008685032 -0.03258196 0.100400805 -0.09486408 0.0059858067 0.13924922 -0.06616542 0.09447983
0.1395965 0.0260974 0.12295805 0.12709457 -0.090585254 -0.078127794 -0.073674075 -0.031444892
0.09594715 -0.12533654 0.08850866 -0.060308263 0.048598766 -0.12307378 0.11655538 0.12493254
-0.06594605 0.030364381 -0.08580137 0.08542864 -0.10213141 -0.10942311 0.1437197 -0.10018685
-0.065194115 0.012136117 -0.09965902 0.017632883 -0.13419628 0.08874227 0.10822257 0.079919234
-0.019200034 0.09421837 0.13434017 0.0049506426 0.13891989 -0.08838842 -0.019878197 0.10069909
0.095064774 -0.017578576 0.04588378 0.084893696 -0.07526405 0.13781565 0.06864582 0.02144963
-0.09612489 0.041119583 -0.024579544 -0.09799787 -0.007303048 -0.0004530838 0.1038688 0.12251799
0.042004768 -0.03342337 -0.054786094 -0.11761909 -0.07804116 -0.13679662 -0.11738124 0.08639153
0.12259766 -0.12336671 0.028097233 -0.100340955 -0.12776193 -0.086739235 0.008657209 0.13238883
0.12975936 0.11171686 -0.010079072 0.12934878 0.077070974 0.0913521 -0.13826655 -0.11635626
0.0134060355 0.0220905 -0.10058248 -0.035843056 0.119997166 -0.07645853 -0.123879515 -0.027493361
00000000: d493 dcbd f906 07be ccbc 72bd 25a6 be3d
00000010: c6cb 0a3e f13c ae3d 995e 87bd 6a9a e53d
00000020: d33f 13be ceb0 a0bd e875 40bd cbf0 42bc
00000030: 95e3 05be 4a27 c63d 6cbb 3cbd f5c0 d83d
00000040: 2d2f 3d3c fa2e 3ebd 9202 71bd f269 333b
00000050: 78f3 953d 3795 453d fa38 15bd 9a99 a53d
00000060: c2fa c03d e1e8 a93d e22f f0bd b936 10be
00000070: 458b c0bd 714f e4bc 9890 ca3d 0b06 c13d
00000080: 09c3 683d 37f8 553c cda2 e43d 4340 13be
00000090: 4064 70bd 03f7 0cbd bd80 bc3d b4b7 e2bd
000000a0: adef 9ebc 371c 85bd d59e bf3d 367a ecbb
000000b0: e078 023d 37b4 6cbd d4aa 803d 7e45 4d3c
000000c0: 5b46 ebbd 4bee 803d 0a29 88bd 6c44 aebc
000000d0: 4d3b 933d f6e0 023d 318e cfbd 7590 4f3d
000000e0: af64 c33d 49c2 693d baa6 d9bd f3d7 babd
000000f0: 7fd6 af3d a5a5 05be d95d 473d 88cc 093e
00000100: e808 12be 7ebe b33d 7a33 7fbc bf51 c33d
00000110: 59f1 a63c b397 193c e3d4 aabd 3bf2 143d
00000120: 25ae a23d cd2b 3ebd 7b95 41bc 2f3a 9e3d
00000130: 678c a4bd cb92 133e 3234 b23d 1aae 6ebd
00000140: 8e20 62bb d6e2 c43d 2f3e c13d c7d3 fbbd
00000150: 384b d0bc 0aad b9bc 4880 683a 0ff7 debc
00000160: 1814 023c 9b18 a03d d9ff 63bd 13ed d03d
00000170: e5c3 a1bd 3435 febd 5162 093e e5d4 743d
00000180: 08bf acbd d3a8 87bd f046 fd3b 67ca 853d
00000190: 23ce 043e 9d1d bfbb 1d58 913d 18f5 0fbe
000001a0: 1c1c 0f3e 65f7 84bd 1371 103e 156f 5abb
000001b0: 0dc8 343c cc25 7cbb d1eb 353d 1fb7 53bd
000001c0: 6a11 2a3d 83d0 b2bc ef25 d23c b216 c43d
000001d0: eba1 5ebd 37cc 0ebe 0fb4 983d c499 103e
000001e0: 0ff7 9b3c de80 283d 8469 e33d 7f94 093e
000001f0: 5965 5cbd e325 3d3c cead dfbd f7fb 27bc
00000200: 2872 c03d e8d9 e7bb fa82 13be 7dc9 093e
00000210: 89a5 513d 6c3b bfbd 17a3 8dbd d74c 273d
00000220: e615 24bd a75e 6bbd c4d3 03be ceec 03be
00000230: 112f d2bd f2c8 cb3d 9399 253c b395 9d3c
00000240: 7a4f fe3d 6c5b b03d a384 8bbd 8707 b63c
00000250: 6da7 4abd 5b6f 073e 27a0 ca39 59ac 913d
00000260: 45d3 1bbd 993d f33d ccbc a1bd d31f 753d
00000270: 5a31 133e 2678 96bc 32fd c83d bef8 993d
00000280: aa4b 0e3c a974 05bd f09e cd3d 1948 c2bd
00000290: 9624 c43b 5997 0e3e bc81 87bd a47e c13d
000002a0: 63f2 0e3e 37ca d53c 6ed1 fb3d 1425 023e
000002b0: c384 b9bd 7701 a0bd 6fe2 96bd 5ccc 00bd
000002c0: f07f c43d 3958 00be 0744 b53d cc05 77bd
000002d0: 800f 473d 1b0e fcbd 96b4 ee3d a2dc ff3d
000002e0: b90e 87bd b9be f83c a1b8 afbd 36f5 ae3d
000002f0: 462a d1bd 3919 e0bd 422b 133e c32e cdbd
00000300: 7e84 85bd 90d6 463c 071a ccbd d672 903c
00000310: c06a 09be 82be b53d cba3 dd3d b2ac a33d
00000320: 6449 9dbc 90f5 c03d 7890 093e 0039 a23b
00000330: 0441 0e3e fd04 b5bd 9ad7 a2bc 533b ce3d
00000340: 52b1 c23d f200 90bc a1f0 3b3d bfdc ad3d
00000350: 0a24 9abd 8c1f 0d3e 2e96 8c3d 22b7 af3c
00000360: 20dd c4bd 026d 283d 0a5b c9bc 1bb3 c8bd
00000370: 684e efbb e18b edb9 2ab9 d43d b6ea fa3d
00000380: 310d 2c3d f2e6 08bd 6267 60bd 47e2 f0bd
00000390: 0bd4 9fbd 6a14 0cbe 9365 f0bd 0bee b03d
000003a0: 7b14 fb3d b0a7 fcbd 2b2c e63c 8f7f cdbd
000003b0: 06d4 02be 57a4 b1bd f7d6 0d3c f090 073e
000003c0: a3df 043e cfcb e43d b122 25bc 0274 043e
000003d0: 63d7 9d3d cf16 bb3d bf95 0dbe 314c eebd
000003e0: fda4 5b3c 23f7 b43c 30fe cdbd 2bd0 12bd
000003f0: 13c1 f53d 4a96 9cbd 8bb4 fdbd c239 e1bc

bias f4 [16]
0.026192533 -0.075334325 0.03539851 0.087063186 0.109315895 0.084869154 0.012641882 -0.0066995937
0.06882503 -0.016273437 0.02858484 0.121422015 -0.09203624 0.029131623 0.09364728 -0.09594207
00000000: b991 d63c e248 9abd 07fe 103d 2f4e b23d
00000010: 03e1 df3d e1cf ad3d e51f 4f3c 4488 dbbb
00000020: 23f4 8c3d df4f 85bc c12a ea3c 1bac f83d
00000030: 7f7d bcbd 71a5 ee3c 25ca bf3d 477d c4bd

weight f4 [16]
0.999875 0.9998751 0.9998749 0.99987537 0.9998753 0.99987537 0.99987614 0.999875
0.9998755 0.9998752 0.99987537 0.9998752 0.9998753 0.9998751 0.99987507 0.99987507
00000000: cff7 7f3f d1f7 7f3f cdf7 7f3f d5f7 7f3f
00000010: d4f7 7f3f d5f7 7f3f e2f7 7f3f cff7 7f3f
00000020: d7f7 7f3f d2f7 7f3f d5f7 7f3f d2f7 7f3f
00000030: d4f7 7f3f d1f7 7f3f d0f7 7f3f d0f7 7f3f

bias f4 [16]
-0.00012446725 -0.000121994184 0.00012270635 0.0001232189 -0.00011021993 0.00012043997 0.00011894477 0.00012371174
-0.00012267934 -0.000120618664 -0.00011582923 -4.150695e-05 -9.42303e-05 -0.00012413207 0.00010746469 8.634035e-05
00000000: 6c83 02b9 21d7 ffb8 bcaa 0039 5234 0139
00000010: e025 e7b8 b794 fc38 fd71 f938 9eb8 0139
00000020: 7ca3 00b9 a7f4 fcb8 58e9 f2b8 c017 2eb8
00000030: 829d c5b8 7329 02b9 ab5e e138 9f11 b538

running_mean f4 [16]
-0.027243372 0.059201915 0.07606753 0.3709532 0.13268371 -0.102883525 0.10702921 -0.030377336
0.02033276 -0.32064748 0.041632842 0.3357381 0.0060320254 0.43550566 -0.022874655 -0.40746477
00000000: 7e2d dfbc b57d 723d 4bc9 9b3d 94ed bd3e
00000010: 3dde 073e 99b4 d2bd 2132 db3d e4d9 f8bc
00000020: e390 a63c e82b a4be 3387 2a3d dde5 ab3e
00000030: 4ca8 c53b 99fa de3e a163 bbbc 399f d0be

running_var f4 [16]
0.50059134 0.3861475 0.45221278 0.39957044 0.4856091 0.47245455 0.43138656 0.43942147
0.40491378 0.51293945 0.41393876 0.40491608 0.445557 0.55966264 0.42055154 0.43925545
00000000: c126 003f 20b5 c53e 6f88 e73e 7f94 cc3e
00000010: c2a1 f83e 90e5 f13e b3de dc3e dafb e03e
00000020: dc50 cf3e 0050 033f c8ef d33e 2951 cf3e
00000030: 0c20 e43e 0d46 0f3f 8852 d73e 17e6 e03e

weight f4 [64, 128]
-0.082606874 0.03529704 0.03511148 -0.00029385596 0.04506959 0.04860725 -0.033243548 -0.056923155
0.03293306 -0.07147864 -0.08013282 -0.049914274 0.08122202 0.006260436 -0.0011746562 -0.008880619
0.05519319 -0.0863848 0.019425508 0.07647876 0.018164804 0.0073079593 -0.07845155 -0.06834026
0.023145443 -0.06233422 0.060276102 0.035794675 -0.043424718 0.06920269 0.06379323 0.07389707
-0.042671688 -0.054810558 0.0077335187 -0.07297628 -0.016888173 -0.06595941 0.01552706 0.05273707
-0.01438108 -0.05417643 0.05941315 0.071107864 0.08036681 0.028526818 0.041336197 0.016959855
0.07604504 0.072569326 -0.06879601 -0.06726291 0.00034751694 -0.05093705 0.030608345 -0.03214335
-0.08166508 0.069433555 0.06957738 -0.07041765 -0.04480771 0.0656098 0.041895226 0.06759453
-0.028702535 0.055909917 0.032700542 -0.038027316 -0.025419632 -0.050007705 0.07897852 -0.08826097
0.08314738 0.018325498 0.051006664 0.026788522 0.03625332 -0.06349381 -0.03109966 -0.086421795
0.04709741 -0.0068327333 0.013426682 -0.022752801 -0.08606553 -0.008070079 0.008273293 -0.019460041
0.08288203 0.063686326 0.08133881 -0.060934894 -0.073062025 -0.028093224 -0.028305896 -0.076510355
-0.040431287 0.025082435 0.073798984 0.020807467 -0.01670157 -0.06653221 0.079646185 0.028442862
0.027753398 -0.03426551 -0.05785476 0.006466044 0.0074641104 -0.013089234 -0.08324772 -0.003267431
-0.022152705 -0.022501113 -0.0038550443 -0.029361453 -0.032915507 0.01625488 0.038846754 -0.05635094
-0.042301502 -0.074868664 0.049270708 0.06687114 -0.0041454937 -0.069558725 -0.054969646 0.07130291
-0.04800232 0.055914417 0.07727006 0.041062515 0.06706738 -0.04691579 0.031638045 -0.01792882
-0.0717793 -0.036763746 0.087430075 0.05138489 -0.019199854 -0.07248304 -0.05408715 0.017785734
-0.07774974 0.07585272 -0.0791351 0.07423062 0.064900964 -0.007211285 -0.030996373 0.023883892
-0.04459084 -0.034315255 0.05532512 0.086654484 0.03347979 -0.054106973 -0.03702969 -0.0879567
0.02944723 -0.009367596 -0.08019193 0.067173876 0.057276875 -0.0675676 0.026047556 0.03795624
-0.049905315 -0.072399534 -0.05560469 0.06039173 -0.060976543 0.031614725 0.022123437 -0.042936284
-0.04317294 0.023924068 -0.014073641 -0.027440898 0.053332444 -0.035398033 -0.08155251 -0.021309681
-0.012465161 -0.02210353 0.03151886 -0.03905254 -0.00279261 0.0787309 0.01674406 -0.0038737345
-0.03192552 0.029135847 -0.07625169 0.06577496 0.05672032 0.0101724705 0.05257685 -0.010479743
-0.079250485 0.036910262 0.012587296 -0.053700637 -0.05936683 0.08731983 -0.039365828 -0.015716357
-0.006944064 0.062737584 -0.068461575 0.010515217 -0.045815002 0.010892701 -0.049003683 -0.083536595
-0.031065788 0.03626375 0.07707597 0.029498681 -0.07081498 -0.060679242 -0.031922057 -0.028160987
0.01165466 -0.022927387 -0.023777721 -0.06304274 -0.0030422115 -0.007236567 -0.041304864 -0.01978157
0.022963544 0.078137636 -0.057035964 -0.06400187 0.056646388 -0.030722281 0.023113312 0.0823159
0.03746602 0.06421602 -0.0038421843 -0.008725565 0.0698735 -0.06374934 -0.001285832 0.07064558
0.039616816 0.03106313 -0.010200862 0.07250513 -0.02225168 0.0855542 0.07704082 0.017639736
00000000: cb2d a9bd a193 103d 0ed1 0f3d ae10 9ab9
00000010: e49a 383d 6518 473d 632a 08bd 4128 69bd
00000020: d1e4 063d 6563 92bd ad1c a4bd e972 4cbd
00000030: bb57 a63d 5824 cd3b ecf6 99ba 0480 11bc
00000040: 4112 623d 84ea b0bd 3e22 9f3c e5a0 9c3d
00000050: 5bce 943c 9b77 ef3b 35ab a0bd faf5 8bbd
00000060: 839b bd3c 2b52 7fbd 13e4 763d 709d 123d
00000070: 1ede 31bd 24ba 8d3d 06a6 823d 5957 973d
00000080: 82c8 2ebd 0981 60bd 7569 fd3b 9674 95bd
00000090: 1159 8abc ba15 87bd 3665 7e3c d302 583d
000000a0: 9f9e 6bbc 1be8 5dbd 345b 733d 00a1 913d
000000b0: 5b97 a43d 13b1 e93c 2550 293d 65ef 8a3c
000000c0: 80bd 9b3d 3a9f 943d ece4 8cbd 23c1 89bd
000000d0: ef32 b639 5ea3 50bd 5abe fa3c bfa8 03bd
000000e0: 0540 a7bd 2e33 8e3d 967e 8e3d 2137 90bd
000000f0: 4a88 37bd 6e5e 863d 549a 2b3d 006f 8a3d
00000100: 9421 ebbc cc01 653d 01f1 053d 88c2 1bbd
00000110: d53c d0bc e1d4 4cbd 7ebf a13d 2bc2 b4bd
00000120: 2c49 aa3d 5b1f 963c 5dec 503d 9a73 db3c
00000130: 5c7e 143d 0b09 82bd b7c4 febc e9fd b0bd
00000140: 37e9 403d 1fe5 dfbb 96fb 5b3c 1564 babc
00000150: 2043 b0bd 5d38 04bc b58c 073c aa6a 9fbc
00000160: 0ebe a93d fa6d 823d f694 a63d de96 79bd
00000170: 8ba1 95bd c323 e6bc c4e1 e7bc 76b1 9cbd
00000180: 479b 25bd ae79 cd3c ec23 973d 6c74 aa3c
00000190: bbd1 88bc 0a42 88bd 8a1d a33d 0101 e93c
000001a0: 185b e33c fe59 0cbd 1df9 6cbd 1ce1 d33b
000001b0: 7f95 f43b 3a74 56bc c87d aabd 6522 56bb
000001c0: 9779 b5bc 4154 b8bc e9a4 7cbb 6e87 f0bc
000001d0: 69d2 06bd f428 853c c61d 1f3d 3ed0 66bd
000001e0: 5744 2dbd be54 99bd 15d0 493d bcf3 883d
000001f0: ecd6 87bb ce74 8ebd da27 61bd 4307 923d
00000200: 159e 44bd 8406 653d c43f 9e3d 2b31 283d
00000210: 9f5a 893d c52a 40bd e596 013d 76df 92bc
00000220: 0701 93bd 9595 16bd 8a0e b33d f678 523d
00000230: 0349 9dbc fd71 94bd 7d8a 5dbd 63b3 913c
00000240: 413b 9fbd ac58 9b3d 9511 a2bd 3906 983d
00000250: ccea 843d a54c ecbb 1bec fdbc 27a8 c33c
00000260: e2a4 36bd 278e 0cbd 989c 623d e877 b13d
00000270: 1b22 093d 469f 5dbd 72ac 17bd a422 b4bd
00000280: 513b f13c 8c7a 19bc ab3b a4bd 7592 893d
00000290: 289b 6a3d e260 8abd af61 d53c 0178 1b3d
000002a0: 8469 4cbd 3546 94bd bec1 63bd 525d 773d
000002b0: 8ac2 79bd 717e 013d 363c b53c f5dd 2fbd
000002c0: 1cd6 30bd 68fc c33c 2195 66bc bccb e0bc
000002d0: 1f73 5a3d 87fd 10bd 0105 a7bd a491 aebc
000002e0: ad3a 4cbc 7612 b5bc ec19 013d 8ef5 1fbd
000002f0: 3904 37bb ab3d a13d d72a 893c 7bde 7dbb
00000300: 56c4 02bd 4dae ee3c d929 9cbd 06b5 863d
00000310: 9153 683d 6faa 263c d35a 573d 3ab3 2bbc
00000320: 144e a2bd 372f 173d f23a 4e3c 33f5 5bbd
00000330: a22a 73bd bdd4 b23d 103e 21bd 97bf 80bc
00000340: 088b e3bb 907c 803d 9535 8cbd 0448 2c3c
00000350: 83a8 3bbd 4d77 323c 16b8 48bd 3c15 abbd
00000360: ae7d febc 4c89 143d 02da 9d3d 38a7 f13c
00000370: 7207 91bd cc8a 78bd b4c0 02bd dfb1 e6bc
00000380: 30f3 3e3c 37d2 bbbc 7fc9 c2bc 8d1c 81bd
00000390: d75f 47bb b920 edbb 4a2f 29bd f60c a2bc
000003a0: 0b1e bc3c a006 a03d 8b9e 69bd 6a13 83bd
000003b0: 0b06 683d 4bad fbbc 2158 bd3c 3d95 a83d
000003c0: f875 193d b083 833d 28cd 7bbb acf5 0ebc
000003d0: d619 8f3d 048f 82bd 5d89 a8ba a1ae 903d
000003e0: 3e45 223d 1b78 fe3c 8421 27bc 927d 943d
000003f0: 2849 b6bc 0a37 af3d 94c7 9d3d 3581 903c

bias f4 [64]
0.052284807 -0.08380312 0.012510543 -0.021733904 -0.07360048 -0.0006144567 0.011340883 0.06650953
-0.07635113 0.040152166 0.059668623 0.07035891 -0.083440594 -0.024368566 -0.04091762 0.033562794
-0.07620779 -0.015448966 -0.071277395 0.017385338 -0.04965841 -0.05447595 -0.039867584 0.016441254
-0.072100334 -0.0042604334 -0.066897355 0.0032885268 0.07483686 0.017341482 0.041610748 0.0061407033
0.0330615 -0.013209256 -0.0085296 0.07651314 0.056086853 0.044768035 0.08248195 -0.035744347
0.040118653 -0.080853246 0.07335749 -0.028272092 0.03553157 0.06232135 -0.0013692913 0.0658506
-0.057392247 -0.07677587 0.032444514 0.05136823 -0.04362902 -0.0693536 0.028401038 0.087766975
-0.034319375 -0.051170714 -0.037552778 -0.050405316 -0.075661354 0.049850825 0.06010988 0.005200128
00000000: 9828 563d f8a0 abbd 05f9 4c3c 4d0b b2bc
00000010: d9bb 96bd 7e13 21ba 1ccf 393c 2636 883d
00000020: fb5d 9cbd 9976 243d 1667 743d 5518 903d
00000030: e7e2 aabd 96a0 c7bc 3c99 27bd 2479 093d
00000040: d412 9cbd a91d 7dbc e2f9 91bd b26b 8e3c
00000050: 9e66 4bbd 2c22 5fbd 314c 23bd cfaf 863c
00000060: 57a9 93bd 1b9b 8bbb 7b01 89bd 5384 573b
00000070: 1144 993d b90f 8e3c 0870 2a3d f437 c93b
00000080: 7f6b 073d a36b 58bc bcbf 0bbc ecb2 9c3d
00000090: 54bb 653d b05e 373d 4cec a83d aa68 12bd
000000a0: 7553 243d 6396 a5bd 743c 963d e09a e7bc
000000b0: 8d89 113d ac44 7f3d cb79 b3ba aedc 863d
000000c0: 2214 6bbd ab3c 9dbd 8ae4 043d 7e67 523d
000000d0: 58b4 32bd 4309 8ebd 4ba9 e83c 2cbf b33d
000000e0: 7992 0cbd 6298 51bd f1d0 19bd ce75 4ebd
000000f0: 57f4 9abd 6130 4c3d c735 763d d665 aa3b

weight f4 [32, 64]
0.10438166 -0.046012595 -0.08112154 -0.10985804 0.10480161 0.10956002 0.033903345 -0.10301191
0.061444934 -0.118474886 0.08744314 -0.0612457 -0.04922429 0.030866442 -0.09789389 -0.04175529
-0.05108047 0.0070772986 0.090506636 0.010192406 0.08314065 0.07726834 0.07418436 -0.01690052
0.009292659 0.11338692 0.012597566 0.07811762 0.026618527 -0.11734379 -0.09995839 0.0118490225
-0.08547594 -0.0050549163 -0.08132981 0.09666534 -0.09844586 0.10457812 0.12272521 -0.10928405
0.08377489 -0.018733714 0.10151409 0.018509982 0.121637724 -0.08169498 0.056147866 0.07972374
0.053122997 -0.12365491 -0.0241014 0.108428575 -0.07431208 0.024805075 0.04118882 0.03342656
-0.055509977 0.037034 0.08031384 -0.022432914 0.06411248 -0.014513865 0.052359495 0.09249748
-0.0053874585 -0.087806866 -0.11655622 -0.0398079 0.051600903 -0.11086899 0.020354733 -0.026062729
0.047320656 0.08091756 0.07538611 -0.040268928 0.08435057 -0.07997654 -0.051218767 0.06522632
-0.10417377 -0.04825524 0.09169139 0.110594474 -0.10283362 -0.076436944 -0.034615554 -0.07283657
-0.013163077 0.07035301 0.02143887 -0.092793606 0.05438393 0.029129213 0.09174785 -0.07428899
0.08292484 0.08884307 -0.0074228733 -0.07543255 0.008636182 0.029506896 -0.06498138 0.096931696
0.009316289 0.027183887 0.09316819 -0.021416523 0.026995527 -0.048284423 0.019087395 0.05213624
-0.10991964 -0.049967222 0.07723143 0.09870454 -0.0021285883 -0.03781871 -0.03180404 0.015015873
0.0513637 0.028560618 0.10709714 0.049258005 -0.040707376 0.037837252 -0.10179211 -0.06226002
-0.081452236 0.0317012 0.019405179 -0.014863251 -0.046084933 0.048400596 -0.0055885194 0.08432769
0.005564186 -0.113280386 -0.10414693 -0.017029328 -0.0640636 -0.07996198 0.06948358 -0.062970616
-0.084709294 0.015523394 -0.0796543 0.10499918 -0.051978875 -0.07985208 -0.08450051 0.086067945
0.12042923 -0.1087225 0.042705994 0.06954885 0.103125304 -0.09783056 0.0019265508 0.012172571
-0.060492203 -0.07064784 -0.010982155 0.02483792 -0.049117025 0.045012034 -0.100840695 -0.09895613
0.10548601 -0.09525924 -0.008648266 -0.077865936 0.043104466 0.08448628 -0.0015872822 0.007245252
-0.10774069 -0.026117034 -0.059623145 0.050419893 -0.007873181 -0.09796294 -0.03975357 -0.071573615
0.010383395 -0.058598403 0.022141164 0.008513008 0.12267775 -0.04114342 -0.031217465 0.11689062
-0.12027254 0.092995085 0.019244887 0.09257234 -0.018482782 0.013741003 -0.044612493 0.09263288
0.10599763 0.088371284 -0.06707207 0.07892037 -0.05148486 -0.08301423 -0.035511997 -0.11589671
0.040083956 0.034748252 -0.051642753 -0.12479728 0.058813177 0.07849821 0.087067224 -0.06764234
0.088501774 -0.03995743 -0.085755415 -0.10586705 0.10979948 -0.06845861 -0.081090964 -0.07534721
-0.004010733 -0.07906858 0.020870348 0.028646724 -0.07662333 -0.12428429 -0.06498351 0.018227197
-0.039590042 0.056521855 0.059899457 0.10862031 0.07368689 0.0392677 0.016548183 -0.05985584
-0.10863406 -0.11152553 -0.121627085 -0.01956705 0.029729575 -0.07832352 -0.0663796 0.072293825
-0.018877454 0.06672645 0.04480305 0.06810703 0.016528007 -0.056953974 -0.078570224 -0.054100864
00000000: 0dc6 d53d b477 3cbd 0d23 a6bd 41fd e0bd
00000010: 3aa2 d63d 0161 e03d 3cde 0a3d e9f7 d2bd
00000020: afad 7b3d f6a2 f2bd 6415 b33d c5dc 7abd
00000030: 699f 49bd 9fdb fc3c 987c c8bd 9807 2bbd
00000040: c139 51bd afe8 e73b 8b5b b93d 0dfe 263c
00000050: a545 aa3d dd3e 9e3d f8ed 973d f672 8abc
00000060: 3d40 183c 6737 e83d 0566 4e3c 21fc 9f3d
00000070: 190f da3c f151 f0bd fcb6 ccbd 6722 423c
00000080: 020e afbd b6a3 a5bb 3e90 a6bd 7af8 c53d
00000090: fc9d c9bd 0e2d d63d 5b57 fb3d 51d0 dfbd
000000a0: 2b92 ab3d 7277 99bc 9fe6 cf3d 3fa2 973c
000000b0: 331d f93d b34f a7bd 4efb 653d 3346 a33d
000000c0: 8097 593d c93e fdbd 4d70 c5bc cd0f de3d
000000d0: ef30 98bd 0334 cb3c 9cb5 283d 4aea 083d
000000e0: 6e5e 63bd f7b0 173d 957b a43d 3bc5 b7bc
000000f0: 674d 833d 90cb 6dbc e976 563d 526f bd3d
00000100: 4789 b0bb 16d4 b3bd 07b5 eebd 9c0d 23bd
00000110: 785b 533d 480f e3bd f8be a63c 8181 d5bc
00000120: 4ed3 413d 1bb8 a53d 0864 9a3d 08f1 24bd
00000130: febf ac3d bdca a3bd c5ca 51bd 6095 853d
00000140: 0f59 d5bd 49a7 45bd b2c8 bb3d 5b7f e23d
00000150: 6f9a d2bd f98a 9cbd 0ac9 0dbd 572b 95bd
00000160: f2a9 57bc 3d15 903d 92a0 af3c 930a bebd
00000170: afc1 5e3d 63a0 ee3c 4ce6 bb3d d324 98bd
00000180: 80d4 a93d 5bf3 b53d 933b f3bb 617c 9abd
00000190: c67e 0d3c 72b8 f13c f514 85bd 2084 c63d
000001a0: 59a3 183c beb0 de3c f7ce be3d b471 afbc
000001b0: b925 dd3c e3c5 45bd 2b5d 9c3c cf8c 553d
000001c0: 8c1d e1bd 6eaa 4cbd 832b 9e3d 9b25 ca3d
000001d0: c97f 0bbb cbe7 1abd f444 02bd 2305 763c
000001e0: be62 523d f5f7 e93c bf55 db3d c3c2 493d
000001f0: c7bc 26bd 3cfb 1a3d 6278 d0bd 5d04 7fbd
00000200: 6ed0 a6bd 1ed9 013d 9cf7 9e3c fe84 73bc
00000210: 8ec3 3cbd b43f 463d e61f b7bb ffb3 ac3d
00000220: c653 b63b 8cff e7bd fc4a d5bd 1781 8bbc
00000230: c733 83bd 1bc3 a3bd 684d 8e3d bdf6 80bd
00000240: 117c adbd d555 7e3c cb21 a3bd cf09 d73d
00000250: cde7 54bd 7d89 a3bd 9a0e adbd 6444 b03d
00000260: 9aa3 f63d e7a9 debd 7bec 2e3d a16f 8e3d
00000270: 5c33 d33d 635b c8bd 5184 fc3a 776f 473c
00000280: acc6 77bd d1af 90bd 7fee 33bc e578 cb3c
00000290: ef2e 49bd 8a5e 383d 9185 cebd 83a9 cabd
000002a0: 0d09 d83d 4717 c3bd 75b1 0dbc 2d78 9fbd
000002b0: 4f8e 303d 2507 ad3d 5a0c d0ba 9469 ed3b
000002c0: 27a7 dcbd 64f3 d5bc 6637 74bd 1785 4e3d
000002d0: 84fe 00bc cba0 c8bd a4d4 22bd 3095 92bd
000002e0: 1d1f 2a3c e104 70bd 6361 b53c 257a 0b3c
000002f0: 793e fb3d 0186 28bd c5bb ffbc 5964 ef3d
00000300: 7351 f6bd 3574 be3d 74a7 9d3c 9196 bd3d
00000310: 3469 97bc f221 613c 97bb 36bd 4fb6 bd3d
00000320: 4915 d93d 01fc b43d 155d 89bd 01a1 a13d
00000330: cae1 52bd 5d03 aabd 0775 11bd 415b edbd
00000340: 132f 243d 2f54 0e3d 5a87 53bd b795 ffbd
00000350: 16e6 703d abc3 a03d 4d50 b23d 1188 8abd
00000360: 6b40 b53d 67aa 23bd 89a0 afbd d3d0 d8bd
00000370: 8dde e03d 0734 8cbd 0513 a6bd a34f 9abd
00000380: 786c 83bb b5ee a1bd 4bf8 aa3c 89ac ea3c
00000390: b1ec 9cbd c388 febd 1316 85bd 3451 953c
000003a0: 2b29 22bd 7683 673d 2259 753d 5374 de3d
000003b0: 27e9 963d 2bd7 203d 0e90 873c 662b 75bd
000003c0: 897b debd 7f67 e4bd 9f17 f9bd 144b a0bc
000003d0: 708b f33c 1568 a0bd 07f2 87bd c90e 943d
000003e0: e4a4 9abc e1a7 883d 6783 373d b37b 8b3d
000003f0: be65 873c 9248 69bd 6de9 a0bd de98 5dbd

bias f4 [32]
-0.10386023 0.10844548 0.09458887 0.02445232 -0.103072815 0.019091174 0.011245317 -0.06400747
-0.0065278797 0.02977695 0.037343163 -0.07572477 -0.021738892 -0.10510627 -0.051617764 0.08210346
-0.06876729 0.07955788 0.12016756 0.10193189 -0.02898549 -0.026636891 -0.02483249 0.12167276
-0.034163803 0.10611481 -0.044083048 -0.0841422 -0.0044230116 0.003251656 -0.07852856 0.12229457
00000000: acb4 d4bd aa18 de3d cfb7 c13d 3b50 c83c
00000010: d717 d3bd 1865 9c3c 473e 383c 5916 83bd
00000020: d3e7 d5bb caee f33c 25f5 183d 9715 9bbd
00000030: c315 b2bc f541 d7bd 266d 53bd dc25 a83d
00000040: ddd5 8cbd 3eef a23d 691a f63d abc1 d03d
00000050: fa72 edbc 9c35 dabc 826d cbbc 912f f93d
00000060: 58ef 0bbd b952 d93d 6d90 34bd bf52 acbd
00000070: e9ee 90bb bc19 553b 95d3 a0bd 9375 fa3d

weight f4 [2, 32]
-0.03412823 -0.14996877 0.025324903 -0.12951009 -0.00044495348 -0.070284426 0.079775594 -0.149017
-0.05562138 0.021362724 0.053165417 0.114202924 -0.16502637 0.06922384 0.0222918 0.0047485284
-0.085363574 0.11751948 -0.12559192 -0.05199418 0.063187204 -0.031859715 0.17014709 0.04604883
0.06073528 -0.044834085 -0.098165 0.009175495 -0.022194505 0.12894952 0.060198344 0.09137206
-0.15579273 -0.13607033 0.004922914 0.13104269 -0.057414062 0.032797154 0.05318305 -0.06497173
-0.07249389 0.018629929 -0.15568498 0.06781722 0.16964933 -0.07060647 0.10643724 -0.15928687
-0.15318 0.13759363 -0.011534301 0.08420977 0.16351648 0.023295473 0.028287286 0.09187363
-0.082487896 0.11715557 -0.094163805 -0.017472904 -0.1557758 0.05335303 0.08019204 -0.10782694
00000000: 0bca 0bbd 6a91 19be 2c76 cf3c 4b9e 04be
00000010: a548 e9b9 48f1 8fbd 6361 a33d ea97 18be
00000020: 3fd3 63bd e100 af3c fbc3 593d 39e3 e93d
00000030: acfc 28be 3bc5 8d3d 4b9d b63c 8b99 9b3b
00000040: 19d3 aebd 0eae f03d 2b9b 00be d9f7 54bd
00000050: 4b68 813d 557f 02bd 0a3b 2e3e b39d 3c3d
00000060: 8fc5 783d f2a3 37bd bb0a c9bd d154 163c
00000070: 40d1 b5bc 580b 043e 8a92 763d 4621 bb3d
00000080: 2188 1fbe 0556 0bbe 6550 a13b 0e30 063e
00000090: 022b 6bbd 4f56 063d 78d6 593d e60f 85bd
000000a0: ad77 94bd cb9d 983c e26b 1fbe c1e3 8a3d
000000b0: 8eb8 2d3e 209a 90bd c5fb d93d 191c 23be
000000c0: 38db 1cbe 58e5 0c3e 5dfa 3cbc 2c76 ac3d
000000d0: dd70 273e 26d6 be3c bdba e73c 3e28 bc3d
000000e0: 6aef a8bd 42ef ef3d f4d8 c0bd 5623 8fbc
000000f0: b183 1fbe b588 5a3d b93b a43d 5fd4 dcbd

bias f4 [2]
-0.16117865 0.17151098
00000000: 040c 25be 93a0 2f3e
