model/13-07-23-21_00.pth (torch, 169855 bytes, 30 tensors)

weight f4 [16, 1, 128]
000000 23 fb f1 bb 67 c5 44 bb d6 97 07 bd b3 c1 a6 3c
       -0.007384674 -0.0030024888 -0.033103786 0.020356035
000010 ae f4 4e bd 27 fc 7f bc 33 e6 0b 3d bd ab a9 3d
       -0.050526313 -0.015624083 0.034155082 0.082847096
000020 26 c2 a9 3c 9e 2c f6 bc e6 36 09 3c 6d 6a 23 bc
       0.02072246 -0.030050572 0.008374905 -0.009974104
000030 dc 68 13 3d b7 28 27 3c de 32 0e 3d 4e 9a af 3d
       0.035988674 0.010202578 0.03471648 0.08574353
000040 6e e9 15 bd b6 d8 4a bb 29 b3 a6 3c ad 8c 0a ba
       -0.03659957 -0.0030951924 0.020349102 -0.00052852446
000050 e0 ce 08 bc e5 f2 9f bd 60 e8 9b bd c5 c7 a2 bd
       -0.008350104 -0.0781 -0.076126814 -0.07948259
000060 63 e8 b0 bd 61 5d a8 bd 83 e8 88 bd 1b 0b a3 bd
       -0.08638074 -0.082209356 -0.06684973 -0.079611026
000070 7c b7 a9 bd 2c 4c 1e 3d 14 95 5d 3d ef 29 74 3d
       -0.0828695 0.038646862 0.05409725 0.059610303
000080 c2 9f 42 3d 27 f8 f4 3c 30 9a 1f 3d f0 c2 47 bd
       0.04751564 0.029903485 0.038965404 -0.04876989
000090 44 f5 a2 3d 46 4a c4 bb 5a 2a 9c 3d c4 a9 de 3c
       0.07956937 -0.0059902994 0.076252654 0.02718056
0000a0 34 9f 8d 3d 70 4e 90 3d 7c 6e 96 bc c8 9e d1 bc
       0.06915131 0.07046211 -0.01836323 -0.025588408
0000b0 aa d8 5b 3c 2b 65 6e bb 0e 5b 64 3c e6 55 37 3d
       0.013418356 -0.0036376219 0.013937725 0.044759654
0000c0 04 3b 8d bd bc 05 82 bb f1 d2 8d bd ce 9d ae 3d
       -0.06896022 -0.0039679687 -0.069249995 0.085261926
0000d0 eb 2c 7e bd 9d b4 8a 3c e9 06 c5 bc a9 17 4e 3d
       -0.062054556 0.016931826 -0.024051147 0.050315533
0000e0 4a c2 d8 39 f4 ac 0f bc 58 b5 84 3d c8 3e a5 3d
       0.00041343487 -0.008769263 0.06479901 0.08068615
0000f0 0b 23 83 bd 6d 5c ae bd 48 e2 f4 3b 83 f6 e4 3c
       -0.06403168 -0.085137226 0.007473264 0.027949577
000100 8c 41 a6 3c ad 4d a7 3d 97 b0 22 3d 79 0f 26 bd
       0.020294927 0.08169112 0.03971919 -0.0405421
000110 e4 71 77 bd af 50 8c 3d 82 b8 ad 3d b3 4b 2b bd
       -0.06041135 0.06851327 0.08482458 -0.04182024
000120 08 37 67 bd c2 18 fe 3c e1 39 81 bd 9e 77 ae bc
       -0.056448966 0.031017665 -0.06309868 -0.021297272
000130 ad ce b2 bd c6 dc c6 3c 28 fb f5 bc bd 24 4a bd
       -0.087308265 0.024275195 -0.030026987 -0.049351443
000140 41 e2 65 bd 5a 4a fe bc 5b 1b 2c 3d 5e 34 a7 3b
       -0.056123976 -0.031041313 0.042018276 0.005102678
000150 57 03 9c 3d 23 f1 00 bd 4c 0d d3 bc 53 26 b1 3d
       0.076178245 -0.031479966 -0.025763176 0.08649888
000160 bc 6a ac bd 6c 03 0e bd cf 18 60 bd b6 63 ae 3d
       -0.084187955 -0.034671232 -0.05471116 0.08515112
000170 c4 36 41 3d 5b 9c f1 bc 72 33 19 bd c5 eb de 3c
       0.04717137 -0.029493501 -0.037402578 0.027212033
000180 07 d1 f3 bc 67 3a e1 3c 4d 04 39 bd a4 b6 5f bd
       -0.029762758 0.027493669 -0.045170117 -0.05461754
000190 fe 17 0f bb db 2d 54 3d 4f 16 9a 3d 05 07 a0 3c
       -0.0021834369 0.051801544 0.07523786 0.019534597
0001a0 d9 a7 56 bd 71 65 3d 3d f2 86 0d 3d d7 dd 1a 3d
       -0.052406166 0.04623932 0.034552522 0.03780922
0001b0 12 73 f0 bc 8f 85 41 bc 6f 56 27 3d 5c 01 16 3d
       -0.029351745 -0.011811628 0.040853914 0.03662239
0001c0 6f ec 70 3d e9 aa 58 bd 23 c1 63 3d 67 5d 0c bd
       0.05881923 -0.052897368 0.05560411 -0.034268763
0001d0 7a be 0c bb 65 fd 29 bd 45 e7 d5 bc c8 1d 74 3d
       -0.0021475838 -0.04150142 -0.026111254 0.059598714
0001e0 25 9e 9a 3d e9 37 fc 3c 71 a0 87 bd 2e 7d 05 bd
       0.07549695 0.030788379 -0.06622399 -0.032590084
0001f0 65 f9 7a 3d 9e e6 c2 bc 3f ab 93 bd 2c e3 a8 3c
       0.061272997 -0.023791607 -0.07210397 0.020616136
000200 ef 99 a0 bd 40 72 29 ba a5 05 34 bc c7 f9 3d 3a
       -0.078418605 -0.0006463863 -0.010987674 0.00072469976
000210 08 62 ad bc 8d aa 55 bc 86 54 5b bd 68 88 6f bd
       -0.021164909 -0.013041151 -0.053547405 -0.058479697
000220 5f ae ec 3c da 08 a3 3d d9 bf 90 bd 90 a1 aa bd
       0.02889174 0.07960673 -0.07067842 -0.08331597
000230 db 56 43 bd 77 cc ad 3d 41 c8 a2 3d f5 e6 af bd
       -0.047690254 0.08486264 0.07948352 -0.085889734
000240 8f ac ae 3c 24 59 41 3c ce ac 9f 3d 68 c2 d8 bc
       0.021322517 0.011801038 0.07796632 -0.026459888
000250 74 d7 ed 3c e3 35 33 bd 29 03 a9 bd a9 9d 20 3c
       0.0290334 -0.043752562 -0.08252556 0.009803214
000260 50 79 2f bd 40 74 b9 bb c1 db a0 bc 12 74 92 bd
       -0.042840302 -0.00565961 -0.019636037 -0.07151045
000270 31 75 53 3d cd 84 79 3d bc 2a 8a 3d 75 f0 39 3c
       0.051625434 0.060917664 0.06746432 0.011348833
000280 9f c3 aa bd 56 9f 90 bd 79 08 18 bc cc 1a 16 bc
       -0.08338093 -0.07061641 -0.009279364 -0.009161662
000290 90 24 a4 bd c2 e5 5f 3d 6b 13 87 bd d0 9d 2a bb
       -0.08014786 0.054662473 -0.065955006 -0.0026034005
0002a0 b2 bf ac bd 6c 5d ca 3c 47 5a 9e 39 63 f0 79 3d
       -0.084350005 0.02470275 0.0003020337 0.061020266
0002b0 70 53 71 3c e6 ff 8e bd 63 6b aa 3d 01 03 9c bd
       0.014729366 -0.069824025 0.08321264 -0.076177604
0002c0 92 48 2d 3d 7b 30 7c bd 47 df 42 3d 9d 1f b5 3c
       0.042305537 -0.061569672 0.047576215 0.022109801
0002d0 6e 70 c2 3c 82 ca ab bc d4 f4 a4 3d 41 35 b0 3d
       0.023735251 -0.020970587 0.0805451 0.086039074
0002e0 67 cb 17 bc b9 bc e7 bc 3f 0b 5f 3c 08 8d 68 3d
       -0.0092648035 -0.028288232 0.013613521 0.056775123
0002f0 c3 2c a8 3d ae 47 a4 3d 9c d0 27 3d 5a 3d 25 3c
       0.082116626 0.08021484 0.04097043 0.010085428
000300 0b 37 85 bd 70 38 8a bd 6b 4e 74 3d bd 4f a3 bd
       -0.06504639 -0.06749046 0.059645098 -0.07974193
000310 05 59 84 bb 56 c8 92 3d 35 a1 9c bd b0 b3 7b bd
       -0.0040389323 0.07167117 -0.07647935 -0.06145066
000320 89 30 b4 bd ae d5 43 3d db 05 9a 3c ec 01 5a 3d
       -0.0879832 0.047811203 0.01880162 0.05322449
000330 e2 d2 41 bc c1 b1 ea bc e6 c4 97 3d 1a d1 6c bd
       -0.011830064 -0.028649213 0.07410602 -0.057816602
000340 2a e9 68 bd 48 3b 77 3d da 20 a7 3d 0d dc 39 bd
       -0.056862988 0.06035927 0.08160563 -0.045375872
000350 2e 46 ad bd cc c3 89 3b e2 e3 4c ba ba 7f d6 3c
       -0.08460651 0.004204249 -0.00078159396 0.026183952
000360 0c 99 41 3d 59 bf 1e 3c 02 82 6a bd 61 65 cb bb
       0.047265097 0.0096891755 -0.05725289 -0.0062071537
000370 02 a5 26 3d 20 72 6b 3c 19 78 78 bd e2 02 b2 bb
       0.040684707 0.014370471 -0.06066141 -0.0054324726
000380 e7 e9 86 bc b6 9b 1c bd b3 1f 37 3d d5 c1 0d 3d
       -0.016468955 -0.038234435 0.044707965 0.03460868
000390 00 a3 98 3d 32 ed 96 3d f2 73 65 bb d8 3f 92 bd
       0.07452965 0.0736946 -0.0035011736 -0.071410835
0003a0 f6 18 ed 3c 0a fa 3c 3d 73 a8 58 3d 48 f1 5a 3d
       0.028942566 0.046136893 0.05289502 0.05345276
0003b0 39 47 44 3d 43 c2 9a 3c 5a cf bd 3b 36 b6 33 3d
       0.047919486 0.01889146 0.0057925405 0.04387494
0003c0 db 41 b3 bd ae 04 32 3d 86 53 c8 3c 86 df bf 3c
       -0.08752795 0.043461494 0.02445389 0.023422014
0003d0 0f 05 ca bc dd fb ce 3c c4 81 aa 3c 7c 50 b0 bd
       -0.024660615 0.025266582 0.02081383 -0.08609101
0003e0 5a 4b 2a bd 72 2c 34 3d d2 0d 7b bd 47 0c 01 bd
       -0.041575767 0.0439877 -0.061292477 -0.03150585
0003f0 2f 0d 52 3d e7 64 39 3d 48 ed 8b bd 5b 15 21 3d
       0.051282104 0.045262244 -0.06832367 0.039327007

bias f4 [16]
000000 df c6 c5 3c 9e fd 4e 3d 70 75 48 3d 25 78 78 bd
       0.02414268 0.050534837 0.048940122 -0.060661454
000010 ff 53 69 3d ff 0d 94 3c e1 d5 04 3d fa 61 82 bd
       0.05696487 0.01807308 0.032430533 -0.06366344
000020 8a e7 a0 bc 03 d0 9d bd 8b 7d a2 3d c9 81 d3 3c
       -0.019641656 -0.07705691 0.07934102 0.025818722
000030 5e 50 56 3d ca 54 08 bd e6 14 3d bd cc b5 ad bd
       0.052322738 -0.033283986 -0.04616251 -0.084819406

weight f4 [16]
000000 cd f7 7f 3f d0 f7 7f 3f d1 f7 7f 3f d1 f7 7f 3f
       0.9998749 0.99987507 0.9998751 0.9998751
000010 ce f7 7f 3f cf f7 7f 3f d2 f7 7f 3f cc f7 7f 3f
       0.99987495 0.999875 0.9998752 0.99987483
000020 d5 f7 7f 3f d1 f7 7f 3f d1 f7 7f 3f d9 f7 7f 3f
       0.99987537 0.9998751 0.9998751 0.9998756
000030 d2 f7 7f 3f d5 f7 7f 3f cf f7 7f 3f d0 f7 7f 3f
       0.9998752 0.99987537 0.999875 0.99987507

bias f4 [16]
000000 99 3f 50 b8 9a 45 e0 b8 89 90 b0 38 29 27 dd b8
       -4.9650294e-05 -0.00010694117 8.419256e-05 -0.00010545395
000010 9d fd a1 b8 0d df 65 b7 1b a1 d3 38 e6 52 c6 38
       -7.7243174e-05 -1.3701397e-05 0.00010091272 9.456817e-05
000020 df a1 21 38 95 25 2c b8 92 e8 e3 38 77 07 bf b8
       3.8536145e-05 -4.1042997e-05 0.00010867523 -9.10898e-05
000030 d5 1c e2 b8 5f e8 cb 38 3d 71 54 38 3e 22 e2 38
       -0.0001078189 9.723077e-05 5.06502e-05 0.00010782898

running_mean f4 [16]
000000 8d 0b 81 3c e9 fb 06 3d f8 b7 02 3d 1d fb 21 bd
       0.015752578 0.032955084 0.031913728 -0.03954612
000010 d0 21 18 3d b5 f3 40 3c f3 59 ad 3c a1 02 2a bd
       0.03714162 0.011776854 0.021161055 -0.041506413
000020 33 2a 52 bc 47 bd 4d bd 42 d6 53 3d ba ff 89 3c
       -0.012827444 -0.050229337 0.051718004 0.016845573
000030 20 c1 0b 3d ed e1 b1 bc 92 8b f6 bc a0 71 62 bd
       0.034119725 -0.021714175 -0.03009585 -0.055284142

running_var f4 [16]
000000 11 86 b2 3e 0b 86 b2 3e 08 86 b2 3e 0a 86 b2 3e
       0.3486791 0.34867892 0.34867883 0.3486789
000010 0b 86 b2 3e 17 86 b2 3e 14 86 b2 3e 11 86 b2 3e
       0.34867892 0.34867927 0.34867918 0.3486791
000020 16 86 b2 3e 06 86 b2 3e 04 86 b2 3e 09 86 b2 3e
       0.34867924 0.34867877 0.3486787 0.34867886
000030 11 86 b2 3e 19 86 b2 3e 11 86 b2 3e 1d 86 b2 3e
       0.3486791 0.34867933 0.3486791 0.34867945

weight f4 [16, 16, 64]
000000 c8 95 a8 ba 32 2b e6 3b 67 7d 56 3b c4 15 01 3c
       -0.0012862021 0.0070241923 0.0032728554 0.0078787245
000010 3b 0f d2 bc 5d 53 fd bc 0e d7 8e bc 0d 5a f0 bc
       -0.025642028 -0.03092354 -0.01743653 -0.029339815
000020 bc 0a 94 3b 89 cd a6 bc 20 d7 79 3b 24 f8 c1 bb
       0.004517881 -0.020361679 0.003812261 -0.0059194732
000030 88 93 63 3c 9e 42 19 3c 96 23 b6 3c 55 19 00 3a
       0.013890155 0.009354262 0.022233766 0.0004886587
000040 c6 99 29 bc 82 71 67 3c 68 b6 78 3c 55 08 97 3c
       -0.010351604 0.014126183 0.015180208 0.01843659
000050 80 bc ea bb 63 7f 2d bc f9 60 97 bc 21 bb 1f 3c
       -0.007163584 -0.010589453 -0.018478857 0.009749205
000060 3c f8 91 3b 93 46 9f bc 3d 46 59 bc 53 73 b4 3b
       0.0044546407 -0.019442832 -0.013261375 0.005506912
000070 cf 94 80 ba 71 f9 dd 3b 36 f5 eb bc 75 d7 75 3c
       -0.0009809973 0.0067741205 -0.02880345 0.015004982
000080 b3 c1 a8 3b 2b c7 e4 bc fe 99 f2 3c c8 98 fa 3c
       0.005150044 -0.027927002 0.029614445 0.03059043
000090 24 c7 ae bb 9b a5 50 bb 09 ca 88 3c b7 35 76 3b
       -0.005333798 -0.003183699 0.0166979 0.0037568638
0000a0 ee 76 bc bc 48 69 fb 3c 46 6e e9 3c 01 ad a9 bc
       -0.023005929 0.03068985 0.028494965 -0.020712378
0000b0 9e fb 07 bc 98 b4 ff 3a 4d c3 b6 3c 6c 48 97 bc
       -0.008299736 0.0019508777 0.022309924 -0.01846715
0000c0 61 9a 02 3c 2b 03 d3 3c 26 83 7f 3b 8e 90 8c 3c
       0.007971377 0.025758347 0.0038988083 0.017158773
0000d0 93 42 8a bc 7a cd a8 3c 05 b7 72 3a 68 3a 41 bc
       -0.016877448 0.020605791 0.00092588394 -0.01179371
0000e0 d7 c3 0f 3b f1 5d a3 bc fc 52 a2 bc 23 62 8e bb
       0.0021936798 -0.019942256 -0.01981496 -0.004345195
0000f0 58 4d de ba e6 56 9b ba 28 c4 ad 3b ea 98 c8 3c
       -0.0016960306 -0.0011851459 0.0053029247 0.024486978
000100 21 d0 8d bc 79 98 47 3c 5a 70 95 3a be 2b 08 bc
       -0.017311158 0.012182348 0.0011401281 -0.00831121
000110 4a de d1 bc 48 d1 49 bb c9 e8 f7 3c 45 36 bb bb
       -0.025618691 -0.0030794907 0.030262368 -0.0057132565
000120 8e a6 5e bc 73 fa ca 3c 89 cb b4 bc f3 44 93 bc
       -0.013589514 0.024777627 -0.02206971 -0.017977213
000130 c4 a7 54 bb b6 75 8c bb c8 89 a1 bc 2b 6d 7b 3c
       -0.003244863 -0.004286493 -0.01971902 0.015345852
000140 ed d5 cf 3c 60 98 07 bc 0d 5a 47 3c 39 10 e1 3b
       0.025370562 -0.008276075 0.012167466 0.006868389
000150 54 d2 10 3c ad f7 93 3c 16 1b 4f 3a 51 d2 f8 ba
       0.008839209 0.018062437 0.00079004595 -0.0018983578
000160 cf 06 b0 bb 1b 86 a0 bc 08 3f 80 bc a9 2a 91 bb
       -0.0053719054 -0.019595196 -0.015655056 -0.0044301343
000170 8b a2 9f ba 81 62 e0 3b 73 a5 48 3c 41 86 9b bc
       -0.0012179179 0.00684768 0.012246477 -0.018984916
000180 6f 39 a1 3b 7a a2 4b 3c ea f3 ee bc be 30 5a 3c
       0.0049201767 0.012428874 -0.029169042 0.013317285
000190 be b5 3b 3c 86 51 e5 bc 23 37 8e bc 43 af 6c 3c
       0.011456905 -0.027992975 -0.017360276 0.0144460825
0001a0 90 f0 9d 3c ed 87 bd 3b 60 9b 3f 3c 12 5e c7 bc
       0.019279748 0.005784026 0.011694759 -0.024336848
0001b0 e7 30 f5 bc 0e ea 01 bc 52 ac 34 bc e8 b1 83 bc
       -0.029930545 -0.007929338 -0.0110274125 -0.016076043
0001c0 32 56 d0 3c 00 8f 44 bc 9f 57 07 bb 64 6f 7d bc
       0.025431726 -0.0119969845 -0.0020651591 -0.015468452
0001d0 b5 7e dc bc 6f 4f 37 3c a6 5e 7b 3c 57 e9 97 bc
       -0.026915887 0.011188372 0.01534239 -0.018543882
0001e0 4b f5 e3 bc d7 7e 68 3c 46 a4 81 bc df 01 e7 3c
       -0.027826926 0.014190397 -0.015825402 0.028199134
0001f0 64 fd 37 3c 55 7c d6 3c 5f 30 b4 3c c9 5f 01 bc
       0.011229847 0.026182333 0.021995721 -0.007896372
000200 f0 09 e4 bb 31 6a f6 bb 42 e4 a7 bc e0 de b5 bc
       -0.0069591925 -0.007519983 -0.020494584 -0.022201002
000210 b9 d6 76 3c 05 4c c7 bc d0 e3 53 bc c7 ce 98 bb
       0.015065842 -0.024328241 -0.012932733 -0.0046633217
000220 11 99 b0 bc 44 ca 58 bb 2a 24 d2 3c d1 08 bf 3b
       -0.021557363 -0.0033079544 0.02565201 0.0058299084
000230 8c 5b b6 bc 6c ad 1c bc c9 54 53 bc 01 b1 70 3a
       -0.02226045 -0.009562831 -0.012898632 0.0009181649
000240 e9 fc eb 3a d6 4a 86 3c 99 80 a9 3c 73 40 db bc
       0.001800445 0.016393106 0.020691203 -0.02676413
000250 9e bd 67 bc 34 e4 ed bb 80 a7 9a 3c 6b ca 78 3c
       -0.014144329 -0.00725987 0.018878698 0.015184979
000260 70 a1 71 3c 7c 4f 60 3b cb f3 a6 3c 8c e2 23 3c
       0.014747962 0.0034227064 0.020379921 0.010002743
000270 29 9a 44 bc 3c 33 bd 3c 41 eb 41 bc 16 c0 d5 3b
       -0.011999645 0.02309572 -0.011835874 0.0065231426
000280 3c 3e f6 bb d0 e7 41 3c 37 6f 1f bc 06 f9 06 bc
       -0.007514743 0.011835054 -0.0097311055 -0.008238083
000290 58 16 11 3c d3 40 90 bc b6 29 e1 3c d5 60 79 bc
       0.008855425 -0.017609036 0.02748571 -0.01522084
0002a0 92 4e d4 3b 47 d3 b3 bc 04 a5 5d 3c eb e0 9e bc
       0.006479093 -0.02195133 0.013528112 -0.019394359
0002b0 ac 40 3c 3c 75 83 11 3c 3b 33 af 3c b1 9b c2 bb
       0.011490028 0.008881439 0.021386733 -0.00593897
0002c0 db 56 99 bc cd 9e ef bc ae 45 63 bc 93 6f c8 bc
       -0.018718174 -0.029250527 -0.013871593 -0.024467265
0002d0 ae 76 ae bc e3 1e e9 bc 25 9c ee 3c c2 56 f7 3c
       -0.021296825 -0.02845711 0.02912719 0.030192737
0002e0 81 ea 4d bc 76 67 30 3a 86 b3 92 bb 39 6d 73 3c
       -0.012568117 0.0006729284 -0.0044769673 0.014857584
0002f0 32 77 a6 3b 9a f3 8d 3c a0 91 52 3c 73 26 05 bc
       0.005080127 0.017328072 0.0128521025 -0.008126843
000300 77 09 3f 3c f7 41 90 3c ab 1c ec 3c 87 b7 f9 bc
       0.011659971 0.01760958 0.028822264 -0.03048302
000310 4e eb 76 3c 4b 4b 9d bc 02 e1 8f 3b c6 be 93 3c
       0.015070749 -0.019200942 0.0043908367 0.018035304
000320 98 23 9d bc f3 f3 ad 3a 3b e8 dd bc 18 7d dc 3b
       -0.019182011 0.0013271555 -0.027088275 0.0067287795
000330 53 f8 e5 bc 8b 42 99 3c d7 b5 5a 3c 03 86 76 bc
       -0.028072512 0.018708488 0.013349018 -0.015046599
000340 da 0d b0 3b e0 ec 0f bc d0 01 7f 3b 95 3e d7 bc
       0.005372745 -0.008784503 0.0038910992 -0.026274959
000350 77 e8 97 bb b8 a0 21 3c 57 8d ad bc ba 52 ba 3c
       -0.0046358663 0.0098649785 -0.02118556 0.022744525
000360 53 7c 6c bc 5a 83 50 3c ef a1 b6 3b 01 43 4a bc
       -0.014433938 0.012726629 0.005573503 -0.012345077
000370 41 74 94 bb 70 21 0c 3b 5d 42 82 3c fc 83 0a ba
       -0.00453046 0.0021382235 0.015900785 -0.00052839494
000380 33 0a 07 3c 43 dc c4 3c 3d 78 b0 ba 7c ab 90 3c
       0.008242178 0.02403081 -0.0013463568 0.017659895
000390 dc a9 bf bc b4 59 52 3c f0 ba e3 bc 6f d3 90 bb
       -0.023396425 0.01283877 -0.0277991 -0.004419736
0003a0 10 5e b1 3c 27 0e cc 3c 07 56 c5 3c 53 50 81 3c
       0.021651298 0.024909092 0.024088873 0.015785372
0003b0 ea d6 8d bc 57 99 96 3c 4c 60 94 bc d4 4d 90 3c
       -0.017314393 0.018383665 -0.018112324 0.017615236
0003c0 6d b9 f8 3b b5 b5 ab bc 2e ab 7a 3b e3 72 b5 bc
       0.007590464 -0.020960668 0.0038249004 -0.022149509
0003d0 e0 74 17 3c cf 95 e1 3c 20 9c b0 3c 72 ee f1 3c
       0.009244174 0.027537255 0.021558821 0.029532645
0003e0 e3 39 a0 3c 53 cb ef bc ac 5e a1 3b 85 cc 85 3b
       0.019558853 -0.029271757 0.004924616 0.0040832185
0003f0 cb 0a f0 bc 0b 59 01 3b 51 1c ee bc 11 1f 39 bc
       -0.029302021 0.0019736912 -0.029066237 -0.011298911

bias f4 [16]
000000 6e 4a 10 3c 75 42 7d 3c c1 4e 9b bc db 5f 17 bb
       0.008806808 0.015457739 -0.018958451 -0.0023097906
000010 a9 11 33 bc ac 7d 02 3c 9e ca f1 3c a2 1f 69 3c
       -0.0109295035 0.007964533 0.02951556 0.014228733
000020 eb e5 f3 3a c1 92 3e bc a3 cb 89 3c a4 db 72 bc
       0.001860795 -0.011631669 0.016820734 -0.014822874
000030 a0 55 b4 bc b0 4a 3b 3c 25 44 97 bc d3 56 ec bc
       -0.022013485 0.011431381 -0.018465111 -0.028849995

weight f4 [16]
000000 d3 f7 7f 3f cd f7 7f 3f d2 f7 7f 3f d2 f7 7f 3f
       0.99987525 0.9998749 0.9998752 0.9998752
000010 d0 f7 7f 3f d2 f7 7f 3f d0 f7 7f 3f d4 f7 7f 3f
       0.99987507 0.9998752 0.99987507 0.9998753
000020 d3 f7 7f 3f d1 f7 7f 3f ce f7 7f 3f d1 f7 7f 3f
       0.99987525 0.9998751 0.99987495 0.9998751
000030 cd f7 7f 3f dc f7 7f 3f d1 f7 7f 3f d3 f7 7f 3f
       0.9998749 0.9998758 0.9998751 0.99987525

bias f4 [16]
000000 2a 77 3a b8 62 ee 74 b8 f2 a3 e9 38 b9 86 d6 b8
       -4.4456836e-05 -5.8396145e-05 0.00011140843 -0.00010229409
000010 23 aa fd 38 99 57 ff 38 a1 57 db 38 0b 35 fb b5
       0.000120956705 0.00012175664 0.00010459056 -1.8716395e-06
000020 39 40 01 39 cc 3c e6 b8 d8 34 01 b9 26 3d cf 38
       0.00012326323 -0.00010978579 -0.00012322085 9.881919e-05
000030 7c 0b cf 38 fb f4 b7 b8 f4 61 25 b8 42 fa 00 39
       9.872668e-05 -8.771751e-05 -3.943029e-05 0.0001230026

running_mean f4 [16]
000000 12 22 23 bb f1 b9 a1 3c 81 00 26 3d ba 3b 6b bc
       -0.0024892134 0.019741984 0.040527824 -0.014357502
000010 20 2e 8c bc a2 ee 27 3b 11 ef 0e bc c9 25 24 3c
       -0.017111838 0.0025624414 -0.00872399 0.010018774
000020 75 2c 1d 3d 07 81 82 bc f0 59 fc 3c 64 15 12 bd
       0.038372476 -0.015930666 0.030804604 -0.03566493
000030 e2 d8 e8 bb 7c 0e 35 bc 25 c7 28 3b d8 84 96 bc
       -0.0071059326 -0.011050817 0.0025753465 -0.018373892

running_var f4 [16]
000000 e7 03 ba 3e 6a cd be 3e 30 74 b9 3e 11 c2 bb 3e
       0.36331102 0.37266093 0.36221457 0.36671498
000010 71 7c c0 3e 7a 1d c0 3e fc e4 bb 3e bc f1 ba 3e
       0.3759494 0.3752249 0.3669814 0.36512554
000020 c2 48 ba 3e 56 77 b9 3e ea 6e bd 3e 4a d2 b6 3e
       0.36383635 0.3622386 0.36998683 0.35707313
000030 a4 fe bc 3e d3 0f bb 3e 10 b9 b8 3e 4a f5 bc 3e
       0.36913025 0.3653551 0.3607869 0.3690589

weight f4 [16, 16, 32]
000000 b4 d9 08 3b a4 9a 3c bc 5a 5a 11 3c e3 28 da bc
       0.0020881714 -0.011511479 0.008871639 -0.026630824
000010 e2 18 8e 3c 2c 8c 2c bd 17 1d 04 3d 90 9e 21 3c
       0.01734585 -0.042125866 0.032254305 0.009864464
000020 3d 57 1c 3d a0 a7 21 bd ec 86 a3 bc eb 7e 53 3c
       0.038169134 -0.0394665 -0.019961797 0.012908678
000030 89 13 3f bc b9 18 1e bd 85 b7 2e bd 98 26 9f bc
       -0.011662372 -0.038597796 -0.042655487 -0.019427583
000040 18 6e e4 bc 61 cb 23 3d 3f ff 45 3b c2 ba 04 3d
       -0.027884528 0.03998888 0.0030211953 0.03240467
000050 e4 78 33 bd e3 7a 61 bc 64 80 eb bc b6 19 36 bc
       -0.043816462 -0.013762209 -0.028747745 -0.011114528
000060 3c ab 0b bd 70 d0 18 3d 54 17 01 bd 67 24 5f 3c
       -0.03409885 0.037308156 -0.031516388 0.013619519
000070 6f 35 12 bb 47 bc 00 3c 5d f3 ff 3c 68 b8 29 bd
       -0.002230968 0.007857389 0.031243974 -0.04143563
000080 83 aa f7 bb b6 e5 f2 bc a2 ab df 3c 56 c8 9a bc
       -0.0075581684 -0.02965055 0.02730352 -0.018894356
000090 5b 8f bd 3b 61 12 ee 3c af d4 19 3d 37 cb a5 bc
       0.0057849116 0.029061498 0.037556347 -0.020238502
0000a0 c9 59 be 3c 3a 3d 23 bd 2c 5c 81 3a c9 9d 91 3c
       0.023236172 -0.039853312 0.0009869388 0.017775433
0000b0 82 ab 22 bd 1a 58 db 3c 31 34 27 3b 7f 46 07 3d
       -0.039714344 0.026775409 0.0025513286 0.033026215
0000c0 22 05 07 3c 15 d1 80 3c 48 e9 83 3c 30 51 a4 3c
       0.00824097 0.015724698 0.016102448 0.020058244
0000d0 22 79 f3 bc 9a 4b 3c 3c 57 4c f9 bc 30 da 93 bc
       -0.029720847 0.011492634 -0.03043191 -0.018048376
0000e0 e4 92 24 bc ac 2b ac 3b 6c 3d 26 3d 90 e3 09 3d
       -0.010044787 0.0052542295 0.04058592 0.033664286
0000f0 a7 cb 0b bc 82 36 50 bc 86 ed aa bc f2 3a 0b bd
       -0.008532441 -0.012708308 -0.020865213 -0.03399176
000100 a8 46 45 3c cf 6c 6f 3c 2a 57 6b bc 15 6f f5 bc
       0.012040772 0.014613344 -0.014364043 -0.029960195
000110 04 8d b0 bc a6 7a 43 bc a5 8f a0 ba e1 f1 44 3c
       -0.021551616 -0.011931097 -0.0012249841 0.012020559
000120 6e b3 ec b9 9c 31 fe bc 9c 19 10 3d 7c 04 e1 3c
       -0.00045147113 -0.031029515 0.035180673 0.027467959
000130 0d 59 c7 3c 9a 34 20 bd 25 30 72 bc d3 ba eb 3c
       0.024334455 -0.039112665 -0.014781986 0.028775608
000140 b9 20 c0 bc 71 9a 8e bc e3 7d 99 bc 1b 5c 7c bc
       -0.023453103 -0.017407628 -0.018736785 -0.015402819
000150 c5 d1 a7 ba 4a e9 80 bc bb 0b 34 bd e4 d4 ad bc
       -0.0012803605 -0.01573624 -0.0439565 -0.021219678
000160 26 3b 03 bd 29 54 0b 3c 10 86 24 bd bc db 1a 3d
       -0.03203883 0.008503952 -0.040166914 0.03780721
000170 04 bf 31 3d 5e 57 9e bc 05 33 48 bc 15 34 cf bc
       0.043395057 -0.01932877 -0.012219195 -0.02529339
000180 ba e4 a6 3b 09 6b 07 bd e1 43 83 3a 58 27 28 3d
       0.0050931843 -0.03306106 0.0010014736 0.041053146
000190 a6 7c 1c 3d b0 99 04 3d 8f a4 64 bc 6c 44 0e bd
       0.03820481 0.03237313 -0.013955249 -0.03473322
0001a0 52 35 00 bc 2b d2 e5 3c 25 38 b5 bc 8d 4e 27 3d
       -0.007825213 0.028054317 -0.022121498 0.040846396
0001b0 08 41 38 3c 3f 47 77 3c 27 66 da bc 72 2f 8d 3c
       0.011245973 0.01509267 -0.026660038 0.017234538
0001c0 4a 1a 2f 3d 57 c6 af bc 01 ce e5 3c 96 29 21 3c
       0.04274968 -0.02145688 0.028052332 0.009836575
0001d0 95 2b 04 bb e4 c8 2c 3d 01 0d 12 3d 40 72 0f bd
       -0.0020167578 0.04218377 0.035656933 -0.035021067
0001e0 84 12 dc bc 3c 96 72 ba 5a 98 a9 bc bc d6 2f 3d
       -0.026864298 -0.0009253954 -0.02070253 0.042929396
0001f0 6d 77 de 3c b2 18 1b bd bb fd 8d 3c 3b ab c7 bc
       0.027156556 -0.03786535 0.017332902 -0.024373641
000200 e6 94 17 bd 94 66 d4 39 89 f0 bb 3c 3d 41 0d 3d
       -0.037007235 0.00040512218 0.022941845 0.034486044
000210 26 b1 a8 3c 3a cf 65 3c 87 9f 0c 3d 11 f3 61 bb
       0.020592283 0.014026457 0.034331825 -0.0034477154
000220 db f5 10 3d 6c 96 ec 3a 95 e2 e9 bc af 24 c9 3b
       0.035390716 0.00180502 -0.028550426 0.006138406
000230 76 19 db bb a9 f1 21 bd c6 0d 30 3d 1c 10 0d 3d
       -0.006686385 -0.039537106 0.042981885 0.03443919
000240 ac 88 ac 3a f3 ac 57 3c 4b 23 12 bc 25 af e1 3c
       0.001316329 0.013163793 -0.008919547 0.027549336
000250 08 c4 d2 3c a5 60 d1 bc 95 cb b0 bc b7 e5 11 3d
       0.02572824 -0.025558779 -0.02158145 0.035619464
000260 dc 16 30 3c a4 12 2a bd d1 72 20 3d 6d 79 79 3c
       0.010747638 -0.041521683 0.039171997 0.015226704
000270 09 2e d9 ba 36 02 06 bd ec 43 94 3c fe 64 14 bd
       -0.0016569506 -0.032716952 0.018098794 -0.036229126
000280 c2 ea 19 bd c6 4a 06 3b 4e 82 1d 3d 61 41 5e 3c
       -0.037577398 0.0020491346 0.038454346 0.013565392
000290 d4 9e 2e 3d 75 06 ce bc 27 59 a1 bb b6 c4 1c 3a
       0.04263194 -0.025149563 -0.004923958 0.000598024
0002a0 27 9d 89 bc 3d df 80 3c b8 da c5 3b 29 7c ae bb
       -0.016798569 0.015731448 0.006038036 -0.0053248596
0002b0 89 1d 33 3d 3a 57 69 3c 7b c0 3e 3c 53 c3 07 bd
       0.04372934 0.014241988 0.011642571 -0.03314526
0002c0 5b 1a 04 3d 83 e1 2d bd ad 22 dc bc 73 0f 8d bb
       0.032251697 -0.042451393 -0.026872003 -0.00430482
0002d0 5a 52 33 bd 83 cf d2 3b 1d e5 1b 3d d9 bf b0 3b
       -0.04377971 0.0064334287 0.038060296 0.005393964
0002e0 b4 02 09 3c 79 89 e0 3c d8 c3 fb bb 0f f8 af 3c
       0.008362461 0.027409302 -0.0076832585 0.021480588
0002f0 42 50 d2 3c 16 b4 ed 3c c9 25 9b 3b 3e cd fe bc
       0.025673036 0.029016536 0.004734729 -0.031103726
000300 5e 51 a9 bc 47 32 9a 3a ed 92 89 3c d3 25 b3 39
       -0.020668682 0.0011764251 0.016793692 0.00034169722
000310 db 5e c3 bc 16 31 c9 bb 50 d4 43 3c 86 dd aa bc
       -0.023848942 -0.0061398847 0.011952475 -0.020857584
000320 81 ab 57 bc c8 42 bc 3c b7 21 a9 bc 5a b9 0b bd
       -0.013163448 0.022981063 -0.02064596 -0.034112312
000330 15 0f 85 bc a6 0e 07 bd f9 e7 4c 3c b4 7f 88 3b
       -0.016242543 -0.032972954 0.0125064785 0.004165614
000340 f8 68 d3 3b 5a 50 ce bc e7 6d a8 bc fb 3d 0c bd
       0.0064517222 -0.025184799 -0.020560218 -0.034238797
000350 8d a9 10 bd bc 49 31 3c 97 4e 4a 3c e7 a4 0d 3d
       -0.035317946 0.010820802 0.012347839 0.03458109
000360 73 3c e5 3a ae 07 01 3c 28 8d 4e ba c8 b9 28 bd
       0.0017489329 0.007875366 -0.000787931 -0.0411928
000370 75 84 96 3b c9 5c 00 bd d2 50 ec 3c 34 29 0b bd
       0.004593427 -0.031338487 0.028847132 -0.03397484
000380 cd 13 d5 3b 2b 87 f2 3a a8 95 1c bd 43 62 d9 3b
       0.0065026046 0.0018503418 -0.03822866 0.006634028
000390 ff cb 80 3c 65 f7 21 3d 1a a7 25 3c 39 e8 1e 3d
       0.015722273 0.039542574 0.010110641 0.038795684
0003a0 e7 c3 67 3c 19 65 15 bd 1f dd 93 3c e0 ba ba bc
       0.014145828 -0.036473367 0.018049775 -0.022794187
0003b0 f6 5b e1 3c 44 92 88 3b ef 99 d5 3b c4 48 c8 bb
       0.02750967 0.004167827 0.0065185945 -0.00611219
0003c0 e9 9b 07 3d 05 05 00 3d ef c4 9f bc c3 5e 02 bd
       0.033107672 0.031254787 -0.019503085 -0.031828653
0003d0 e2 55 b0 3c e0 7f db 3b 28 20 29 3d e3 64 36 bc
       0.021525327 0.0066985935 0.041290432 -0.011132452
0003e0 b5 33 b8 3c 71 bf 9b bb ed 2e 05 3d d2 db b8 bb
       0.022485593 -0.004753046 0.032515455 -0.005641439
0003f0 ec 1b 1a 3d a9 d5 27 3c 90 88 30 bd 86 6e 0e 39
       0.037624285 0.010243812 -0.043098986 0.00013583348

bias f4 [16]
000000 61 04 10 bd b9 71 c0 3c 57 2d 20 bd a5 63 29 bc
       -0.035160426 0.023491727 -0.03910574 -0.0103386985
000010 88 b5 fd bc 99 76 78 3b ea 92 22 3d 6c 3d 01 bd
       -0.03097035 0.0037912487 0.03969089 -0.031552717
000020 ba 6b b2 3b 60 4f 15 3d e5 fe 33 3c 1a 6e 1b 3d
       0.005444971 0.03645265 0.010986065 0.037946798
000030 40 fa 39 3b 85 9f 00 3c ec 8f 6e 3b 39 56 d3 3c
       0.002837792 0.007850532 0.0036401702 0.02579795

weight f4 [16]
000000 d6 f7 7f 3f cf f7 7f 3f cf f7 7f 3f d1 f7 7f 3f
       0.9998754 0.999875 0.999875 0.9998751
000010 d1 f7 7f 3f cf f7 7f 3f d2 f7 7f 3f d0 f7 7f 3f
       0.9998751 0.999875 0.9998752 0.99987507
000020 d0 f7 7f 3f d0 f7 7f 3f d6 f7 7f 3f d3 f7 7f 3f
       0.99987507 0.99987507 0.9998754 0.99987525
000030 d0 f7 7f 3f d0 f7 7f 3f cf f7 7f 3f d2 f7 7f 3f
       0.99987507 0.99987507 0.999875 0.9998752

bias f4 [16]
000000 46 d3 b5 b8 b6 9c 00 b9 10 b5 02 b9 a4 89 75 b8
       -8.670105e-05 -0.0001226541 -0.00012465217 -5.854074e-05
000010 d4 76 96 38 b9 2b f9 38 90 cf f1 38 e6 bb e7 38
       7.174691e-05 0.00011881389 0.00011530437 0.00011049937
000020 9f 6c f4 b8 ea bf e1 b8 43 c7 d6 b8 78 ce f2 38
       -0.00011655059 -0.00010764583 -0.000102414306 0.00011577917
000030 4c ff 99 38 3f 53 00 39 43 98 e0 b8 79 20 da 38
       7.343161e-05 0.00012238043 -0.00010709513 0.000104010986

running_mean f4 [16]
000000 57 b2 f7 bd 40 ff 3b 3c f3 3f d3 bd 68 4b 64 3c
       -0.120945625 0.011474431 -0.10314932 0.013933994
000010 b7 45 86 3d 01 e1 0e bd 9a b8 c7 3d b6 ea 23 3e
       0.06556266 -0.03488255 0.09752007 0.16007504
000020 f4 8e dd 3c 25 97 59 be 63 2d 4d 3e e4 24 84 3e
       0.027045704 -0.21249063 0.20036845 0.25809395
000030 67 57 5f 3c 57 e9 3b bd b8 d4 a1 bd 08 a8 dc 3d
       0.013631678 -0.045876827 -0.07901901 0.10774237

running_var f4 [16]
000000 77 b0 c0 3e 9b ec c8 3e 8b 33 ca 3e 19 cf e1 3e
       0.37634632 0.39243016 0.3949245 0.44103315
000010 e7 bd d6 3e 70 a0 c8 3e 1a 7b ce 3e f2 78 d5 3e
       0.4194176 0.39184904 0.40328294 0.41693836
000020 b8 f5 c7 3e dd c5 c3 3e 84 5a c5 3e be e1 c3 3e
       0.39054656 0.38236895 0.3854562 0.38258165
000030 1e 23 c7 3e 42 ce d5 3e 94 83 c7 3e db 37 c2 3e
       0.3889398 0.41758925 0.38967574 0.3793324

weight f4 [16, 16, 3]
000000 9b 93 dc bd dc 06 07 be 2c bc 72 bd c3 a6 be 3d
       -0.10770341 -0.1318621 -0.059261486 0.09309151
000010 0c cc 0a 3e 51 3e ae 3d 7c 5a 87 bd 06 9b e5 3d
       0.135544 0.0850798 -0.066090554 0.11211209
000020 89 64 13 be bb b0 a0 bd 0b 78 40 bd f4 06 43 bc
       -0.1439382 -0.07846209 -0.046989482 -0.011903513
000030 b2 17 06 be 35 27 c6 3d f2 bd 3c bd e1 dd d8 3d
       -0.13094977 0.09675447 -0.046079583 0.10589195
000040 f3 37 3d 3c b2 2d 3e bd fc e9 71 bd b2 be 32 3b
       0.011548984 -0.046430297 -0.059061036 0.0027274308
000050 c3 f4 95 3d 0b 41 46 3d f2 37 15 bd ed de a5 3d
       0.07322075 0.048401874 -0.036430307 0.0809916
000060 cf fa c0 3d 9d e8 a9 3d 56 38 f0 bd e0 36 10 be
       0.09422838 0.082963206 -0.11729495 -0.14083433
000070 23 8c c0 bd 23 28 e4 bc 26 73 ca 3d 36 a3 c0 3d
       -0.09401729 -0.02785117 0.09885244 0.0940613
000080 ba da 67 3d 16 57 56 3c 3f a3 e4 3d 30 40 13 be
       0.05660508 0.013082286 0.11163949 -0.14379954
000090 d7 89 70 bd 17 00 0d bd 0c 81 bc 3d 15 b6 e2 bd
       -0.058725204 -0.034423914 0.09204301 -0.11069886
0000a0 e5 b3 9d bc a1 16 85 bd 43 73 bf 3d 3f 25 f4 bb
       -0.01925082 -0.06498457 0.09348156 -0.007450729
0000b0 e2 7d 01 3d bd d9 6c bd 72 ab 80 3d 29 52 4d 3c
       0.03161419 -0.05782484 0.062827006 0.012531796
0000c0 4e 56 eb bd 15 e9 80 3d f5 42 88 bd 9b 2f ae bc
       -0.11491071 0.06294457 -0.06653396 -0.021262934
0000d0 ac 3c 93 3d f8 e1 02 3d 8c a5 cf bd e4 85 4f 3d
       0.071893066 0.03195378 -0.101389974 0.050664797
0000e0 b3 61 c3 3d 0f 8f 69 3d 50 aa d9 bd ac d8 ba bd
       0.09540119 0.057021197 -0.10628188 -0.09123358
0000f0 f9 d6 af 3d c9 ae 05 be 1c 5c 47 3d e0 d0 09 3e
       0.08585925 -0.13054956 0.048671827 0.13458586
000100 a4 08 12 be 69 d1 b3 3d b5 6f 7f bc 7f 52 c3 3d
       -0.14261109 0.08780176 -0.015590598 0.09537219
000110 ce ed a6 3c c3 a0 19 3c c2 d4 aa bd 19 f6 14 3d
       0.020377066 0.0093767075 -0.083413616 0.03636751
000120 64 af a2 3d 8b 1f 3e bd 87 38 41 bc b1 30 9e 3d
       0.07943609 -0.0464168 -0.011793262 0.07724131
000130 08 8e a4 bd 87 8f 13 3e cc 33 b2 3d 8f b0 6e bd
       -0.08034903 0.1441022 0.08701286 -0.05827385
000140 80 2b 62 bb 84 e3 c4 3d 17 3e c1 3d 75 d5 fb bd
       -0.0034510791 0.09613708 0.09435671 -0.12296573
000150 b2 27 d0 bc d0 9a b9 bc 0e 24 69 3a df fa de bc
       -0.025409553 -0.022656828 0.0008893617 -0.027219234
000160 ea 0b 02 3c 1e 17 a0 3d 00 00 64 bd 1c ee d0 3d
       0.007937411 0.07816909 -0.055664062 0.10201666
000170 ca d6 a1 bd 02 3a fe bd be 61 09 3e 7b d1 74 3d
       -0.07902296 -0.12413408 0.13416192 0.05977009
000180 5a bf ac bd 8d a9 87 bd 65 5d fd 3b d1 ca 85 3d
       -0.08434935 -0.06624136 0.0077320808 0.06532825
000190 3e c5 04 3e c5 2c bf bb e6 18 91 3d 8f f5 0f be
       0.12965867 -0.0058341944 0.07084827 -0.14058517
0001a0 74 1a 0f 3e d3 b6 84 bd c7 71 10 3e 9e 81 59 bb
       0.13974935 -0.064801835 0.14105903 -0.003318883
0001b0 81 40 34 3c 17 9a 7d bb 91 c7 35 3d d9 9d 53 bd
       0.011001707 -0.003869658 0.044379774 -0.051664207
0001c0 72 13 2a 3d 14 d2 b2 bc bd 93 d3 3c 7e 5b c4 3d
       0.04152245 -0.021828689 0.025827283 0.09587763
0001d0 bd a0 5e bd 6f bf 0e be fb b3 98 3d b4 99 10 3e
       -0.05435251 -0.13940214 0.074562036 0.14121133
0001e0 4b e5 9b 3c 5c 61 28 3d 96 37 e3 3d 24 95 09 3e
       0.019030234 0.041108474 0.110945866 0.13435799
0001f0 85 39 5c bd d6 31 3d 3c d2 ad df bd 99 00 28 bc
       -0.053765792 0.011547526 -0.109218255 -0.010254049
000200 6f 6f c0 3d 5c 00 e8 bb 64 83 13 be 14 c0 09 3e
       0.09396254 -0.007080121 -0.1440559 0.13452178
000210 48 ab 51 3d f5 3a bf bd 21 a3 8d bd 71 4d 27 3d
       0.051188737 -0.09337417 -0.0691588 0.04084534
000220 a9 15 24 bd 4a 5f 6b bd fc d3 03 be 30 ed 03 be
       -0.04005972 -0.05746392 -0.12873834 -0.12883449
000230 02 30 d2 bd be bc cb 3d 6a 8e 25 3c 4a 92 9d 3c
       -0.10263063 0.09948109 0.010104755 0.019234795
000240 47 4f fe 3d 48 5b b0 3d fc 84 8b bd 0e 1b b6 3c
       0.12417465 0.086111605 -0.06812474 0.022229698
000250 5c a3 4a bd 41 61 07 3e ab ab d0 39 b5 b3 91 3d
       -0.049472198 0.13220693 0.00039800754 0.071143545
000260 9a ce 1b bd cb 3d f3 3d 4d a5 a1 bd 00 24 75 3d
       -0.038038827 0.118770204 -0.07892857 0.059848785
000270 66 36 13 3e 1d 6b 96 bc ad f7 c8 3d 4f f8 99 3d
       0.1437622 -0.018361622 0.098128654 0.07518064
000280 29 4e 0e 3c b3 74 05 bd a2 9e cd 3d f2 48 c2 bd
       0.008685627 -0.032581996 0.100400224 -0.094865695
000290 22 d2 c3 3b 3e 94 0e 3e e3 25 87 bd bc 79 c1 3d
       0.0059759775 0.13923737 -0.06599023 0.09447047
0002a0 35 db 0e 3e ee 43 d5 3c a8 95 fb 3d bc 30 02 3e
       0.13950808 0.026033368 0.12284404 0.12713903
0002b0 aa 2d b9 bd e6 92 9f bd 2d 0f 97 bd 18 66 01 bd
       -0.09041913 -0.077916905 -0.073759414 -0.031591505
0002c0 71 7b c4 3d 10 53 00 be bf 3c b5 3d 69 3b 77 bd
       0.09593857 -0.12531686 0.08849477 -0.060359392
0002d0 11 87 46 3d 99 11 fc bd 4a 59 ee 3d 4a cf ff 3d
       0.048468653 -0.12308044 0.11638124 0.12490709
0002e0 e1 04 87 bd 42 1c fa 3c 4a a0 af bd af f6 ae 3d
       -0.065927275 0.030531053 -0.085754946 0.08543145
0002f0 94 01 d1 bd fc 17 e0 bd 0b 08 13 3e 93 2e cd bd
       -0.10205379 -0.10942075 0.14358537 -0.10018649
000300 89 83 85 bd a3 ec 46 3c 3d 19 cc bd 85 74 90 3c
       -0.06519229 0.0121413795 -0.09965751 0.017633686
000310 eb 84 09 be e0 be b5 3d 90 a3 dd 3d 98 ac a3 3d
       -0.1342961 0.08874297 0.10822213 0.07991904
000320 e0 4a 9d bc 79 f5 c0 3d 67 90 09 3e 9a 23 a2 3b
       -0.019200742 0.0942182 0.13433991 0.0049480917
000330 55 41 0e 3e b4 e3 b4 bd 3b ba a2 bc e2 24 ce 3d
       0.1389211 -0.088324934 -0.019864192 0.100656286
000340 6d 9e c2 3d 4e 09 90 bc 53 fb 3b 3d 08 df ad 3d
       0.095028736 -0.017582562 0.04589398 0.084898055
000350 04 13 9a bd 5e 1f 0d 3e 59 95 8c 3d ae 5d af 3c
       -0.07523158 0.13781497 0.06864423 0.021406975
000360 83 d3 c4 bd 0c 6b 28 3d c6 a1 ca bc 63 b3 c8 bd
       -0.09610655 0.041117713 -0.024735343 -0.0979984
000370 c8 51 ef bb 1c 9d ed b9 62 ba d4 3d 3b ec fa 3d
       -0.0073034503 -0.00045321218 0.10387112 0.12252089
000380 77 16 2c 3d 8b e3 08 bd 8d 63 60 bd eb ce f0 bd
       0.04201361 -0.033420127 -0.05478244 -0.117582165
000390 50 d3 9f bd f4 25 0c be 34 65 f0 bd f1 e3 b0 3d
       -0.078039765 -0.13686353 -0.11738053 0.086372264
0003a0 76 f9 fa 3d e9 a7 fc bd 66 3d e6 3c 28 82 cd bd
       0.12254612 -0.12336714 0.028105449 -0.10034591
0003b0 74 d5 02 be e2 8a b1 bd 73 e8 0d 3c 1c 91 07 3e
       -0.12776738 -0.08669068 0.008661377 0.13238949
0003c0 7b ac 04 3e e1 69 e4 3d ec 69 25 bc 0c 74 04 3e
       0.12956421 0.11153007 -0.0100960545 0.12934893
0003d0 8a d7 9d 3d 02 17 bb 3d d6 95 0d be d8 4c ee bd
       0.077071264 0.09135248 -0.13826689 -0.116357505
0003e0 02 c1 5b 3c 70 c8 b6 3c ad fd cd bd 40 fa 12 bd
       0.013412716 0.022312373 -0.100581504 -0.03588319
0003f0 32 c1 f5 3d 97 95 9c bd ec b2 fd bd ad 3c e1 bc
       0.1199974 -0.076457195 -0.12387642 -0.027494753

bias f4 [16]
000000 b9 91 d6 3c e2 48 9a bd 07 fe 10 3d 2f 4e b2 3d
       0.026192533 -0.075334325 0.03539851 0.087063186
000010 03 e1 df 3d e1 cf ad 3d e5 1f 4f 3c 44 88 db bb
       0.109315895 0.084869154 0.012641882 -0.0066995937
000020 23 f4 8c 3d df 4f 85 bc c1 2a ea 3c 1b ac f8 3d
       0.06882503 -0.016273437 0.02858484 0.121422015
000030 7f 7d bc bd 71 a5 ee 3c 25 ca bf 3d 47 7d c4 bd
       -0.09203624 0.029131623 0.09364728 -0.09594207

weight f4 [16]
000000 d3 f7 7f 3f d1 f7 7f 3f ce f7 7f 3f d6 f7 7f 3f
       0.99987525 0.9998751 0.99987495 0.9998754
000010 d3 f7 7f 3f d9 f7 7f 3f dc f7 7f 3f cd f7 7f 3f
       0.99987525 0.9998756 0.9998758 0.9998749
000020 d3 f7 7f 3f cf f7 7f 3f d6 f7 7f 3f d2 f7 7f 3f
       0.99987525 0.999875 0.9998754 0.9998752
000030 d3 f7 7f 3f d3 f7 7f 3f ce f7 7f 3f d4 f7 7f 3f
       0.99987525 0.99987525 0.99987495 0.9998753

bias f4 [16]
000000 dd 1a 02 b9 30 79 02 b9 b4 1c f1 38 57 59 01 39
       -0.00012407773 -0.00012442912 0.00011497122 0.0001233568
000010 7f 95 fc b8 6d c8 01 39 85 f0 fd 38 61 21 ff 38
       -0.00012044142 0.00012377063 0.0001210878 0.00012165565
000020 df 1a 02 b9 87 b7 02 b9 7d 21 da b8 73 4a ef 38
       -0.00012407776 -0.00012466135 -0.00010401288 0.00011410275
000030 53 f7 6c b8 f5 a7 00 b9 3b 23 fb 38 81 68 b0 38
       -5.6497123e-05 -0.000122696 0.00011975175 8.411799e-05

running_mean f4 [16]
000000 2f a5 03 bd cb 6b 73 3d 08 1f 9d 3d 0b a8 bd 3e
       -0.032139953 0.05942897 0.07671934 0.3704227
000010 ac 0b 08 3e 7e 7b d8 bd 22 31 db 3d a8 e8 05 bd
       0.13285702 -0.10570429 0.10702731 -0.03269258
000020 d5 9e c8 3c eb e9 a6 be b4 d6 21 3d 62 0f ac 3e
       0.0244898 -0.3260034 0.039511397 0.33605486
000030 4e d7 79 ba d9 89 dd 3e ae 4b ad bc 69 04 ce be
       -0.0009530679 0.43269232 -0.021154251 -0.4023774

running_var f4 [16]
000000 16 23 fc 3e 6d 92 c4 3e b6 d6 e2 3e 72 d0 d0 3e
       0.49245518 0.38392964 0.44304436 0.4078403
000010 6e e9 f9 3e 3d 7c f1 3e 84 33 e0 3e 6c 1f e4 3e
       0.48810905 0.471651 0.43789303 0.44555223
000020 0c 51 cd 3e c8 35 00 3f f6 63 d6 3e 57 25 d0 3e
       0.40100896 0.50082064 0.4187314 0.40653488
000030 16 1a e6 3e 15 0e 0f 3f 93 1f d5 3e 96 e6 da 3e
       0.44941777 0.5588086 0.41625652 0.42754048

weight f4 [64, 128]
000000 32 2c a9 bd 74 98 10 3d 2b d0 0f 3d 66 d5 92 b9
       -0.08260383 0.03530164 0.035110634 -0.00028006284
000010 95 a7 38 3d a1 18 47 3d ba 2b 08 bd 8e 20 69 bd
       0.045081694 0.048607472 -0.033244826 -0.056915812
000020 29 ea 06 3d 37 62 92 bd 38 1c a4 bd 9a 73 4c bd
       0.032938156 -0.07147639 -0.08013195 -0.049914934
000030 d9 90 a6 3d 99 33 cd 3b d9 1d 9a ba cf 4b 11 bc
       0.08133096 0.0062622544 -0.0011758163 -0.008868172
000040 72 62 62 3d 64 e8 b0 bd 50 24 9f 3c cb 9d 9c 3d
       0.055269666 -0.08638075 0.019426495 0.07647284
000050 0e c6 95 3c 6d 84 ef 3b bd ab a0 bd 69 f2 8b bd
       0.018282916 0.0073094876 -0.078452565 -0.068333454
000060 4c 9e bd 3c 8b 50 7f bd a7 e5 76 3d 34 9c 12 3d
       0.02314677 -0.06233267 0.060277607 0.0357935
000070 4f d2 31 bd 72 bb 8d 3d b0 a5 82 3d be 83 97 3d
       -0.043413457 0.06920518 0.06379259 0.07398175
000080 c8 c8 2e bd 9a 7f 60 bd 26 76 fd 3b 93 74 95 bd
       -0.04267195 -0.05480919 0.0077350317 -0.072976254
000090 15 59 8a bc e8 14 87 bd 99 60 7e 3c da 00 58 3d
       -0.01688818 -0.065957844 0.01552596 0.052735187
0000a0 76 99 6b bc a0 e7 5d bd 37 62 73 3d f5 a2 91 3d
       -0.01437985 -0.054175973 0.059419837 0.0711116
0000b0 4c 99 a4 3d 20 b5 e9 3c 2a 55 29 3d 2d f5 8a 3c
       0.080370516 0.02852875 0.041340984 0.016962612
0000c0 c1 1c 9c 3d c6 af 94 3d 66 e4 8c bd 57 c2 89 bd
       0.07622672 0.072600886 -0.06879501 -0.067265205
0000d0 10 fd d7 39 53 a2 50 bd 89 ba fa 3c 72 89 03 bd
       0.00041196542 -0.050936054 0.030606525 -0.0321135
0000e0 18 3f a7 bd 3f 33 8e 3d a0 84 8e 3d f5 35 90 bd
       -0.08166331 0.06943368 0.0695889 -0.070415415
0000f0 d0 86 37 bd 5c 62 86 3d 38 a1 2b 3d d3 71 8a 3d
       -0.0448063 0.06561729 0.041901797 0.067599915
000100 31 e3 ea bc 46 06 65 3d ad ef 05 3d 46 be 1b bd
       -0.028672786 0.055914186 0.032699276 -0.038023256
000110 3c 2f d0 bc 29 d5 4c bd e6 be a1 3d 62 be b4 bd
       -0.025413148 -0.050007973 0.07897739 -0.08825375
000120 67 49 aa 3d 58 2b 96 3c ad f5 50 3d 21 73 db 3c
       0.08314782 0.018331215 0.051015545 0.026788296
000130 dd 7c 14 3d 73 07 82 bd 55 c2 fe bc 86 fe b0 bd
       0.03625189 -0.06349077 -0.031098524 -0.086422965
000140 0b ec 40 3d 90 e1 df bb 10 24 5c 3c 46 62 ba bc
       0.047100108 -0.006832309 0.013436332 -0.022751939
000150 70 43 b0 bd 0a 2f 04 bc b7 96 07 3c 10 6c 9f bc
       -0.08606613 -0.008067856 0.008275679 -0.019460708
000160 ea be a9 3d 45 6f 82 3d b3 98 a6 3d 20 96 79 bd
       0.08288367 0.06368879 0.08134594 -0.060934186
000170 23 a1 95 bd 16 22 e6 bc 90 dd e7 bc 17 b1 9c bd
       -0.07306125 -0.028092425 -0.028303891 -0.07650965
000180 64 9b 25 bd c0 b9 cd 3c 94 25 97 3d 88 6f aa 3c
       -0.040431395 0.025112987 0.07380214 0.020805135
000190 8b bb 88 bc ab 40 88 bd 13 1d a3 3d 66 fb e8 3c
       -0.01669099 -0.066529594 0.0796453 0.028440189
0001a0 c0 53 e4 3c 29 57 0c bd a8 f8 6c bd fa c9 d4 3b
       0.027871966 -0.03426281 -0.057854325 0.006493804
0001b0 a9 d7 f4 3b 78 73 56 bc 8a 7e aa bd ef 7d 54 bb
       0.0074719978 -0.013089053 -0.08324917 -0.0032423695
0001c0 78 7b b5 bc c1 57 b8 bc a0 16 7c bb 15 85 f0 bc
       -0.022153601 -0.022502782 -0.0038465634 -0.029360333
0001d0 6c d3 06 bd b2 92 85 3c 38 1f 1f 3d 4b d1 66 bd
       -0.03291647 0.016305301 0.038848132 -0.05635194
0001e0 f5 42 2d bd 4f 54 99 bd 62 d4 49 3d f9 f6 88 3d
       -0.042300183 -0.07486784 0.04927481 0.06687731
0001f0 05 c9 87 bb fe 74 8e bd f7 25 61 bd d5 07 92 3d
       -0.0041438364 -0.06955908 -0.054967847 0.071304
000200 ab 9e 44 bd 22 da 64 3d d4 3f 9e 3d 05 92 27 3d
       -0.04800288 0.05587209 0.07727018 0.04091074
000210 cf 20 89 3d 9a 2a 40 bd 23 ab 00 3d bf e0 92 bc
       0.06695711 -0.046915628 0.03141321 -0.017929433
000220 fb 00 93 bd ab 95 16 bd e6 0e b3 3d 4d 48 52 3d
       -0.071779214 -0.03676383 0.08743076 0.051338483
000230 89 49 9d bc f1 71 94 bd 20 8a 5d bd c3 ae 91 3c
       -0.019200103 -0.07248295 -0.054086804 0.017783528
000240 1c 3b 9f bd 07 f9 9a 3d 8a 11 a2 bd b8 05 98 3d
       -0.07774946 0.075670294 -0.079135016 0.07422966
000250 e2 af 84 3d 92 55 ec bb 62 eb fd bc 13 a3 c3 3c
       0.064788595 -0.007212349 -0.030996028 0.02388147
000260 d6 a4 36 bd 3e 8e 0c bd 05 9c 62 3d 10 78 b1 3d
       -0.044590794 -0.03431534 0.055324573 0.08665478
000270 f7 1c 09 3d 09 9f 5d bd 43 ac 17 bd 8f 22 b4 bd
       0.03347489 -0.054106746 -0.037029516 -0.08795654
000280 40 6d f0 3c 2f 7b 19 bc b4 3b a4 bd 75 93 89 3d
       0.02934897 -0.009367748 -0.080192 0.06717578
000290 5c 27 6a 3d c0 60 8a bd f3 ee d4 3c 13 04 1b 3d
       0.057166442 -0.06756735 0.025992846 0.037845682
0002a0 8e 69 4c bd 01 46 94 bd 66 c1 63 bd 4e 32 77 3d
       -0.049905352 -0.07239915 -0.05560436 0.06035071
0002b0 38 c2 79 bd 94 f4 00 3d 0b 33 b5 3c b9 dd 2f bd
       -0.060976237 0.031483248 0.022119066 -0.04293606
0002c0 e4 d5 30 bd 3a f6 c3 3c 7b 95 66 bc 08 cc e0 bc
       -0.043172732 0.02392112 -0.014073725 -0.02744104
0002d0 c4 62 5a 3d 88 fd 10 bd f1 04 a7 bd 61 91 ae bc
       0.053316846 -0.035398036 -0.081552394 -0.021309556
0002e0 a2 39 4c bc 5e 12 b5 bc e0 b5 00 3d c4 f5 1f bd
       -0.012464913 -0.022103485 0.03142345 -0.03905274
0002f0 ed 1d 37 bb f0 3a a1 3d 2f 23 89 3c 97 e6 7d bb
       -0.002794142 0.078725696 0.01674041 -0.0038742179
000300 73 c4 02 bd 2c 29 ee 3c c5 29 9c bd f4 45 86 3d
       -0.03192563 0.029072367 -0.076251544 0.06556311
000310 49 00 68 3d 94 5d 27 3c 60 22 57 3d 0d b5 2b bc
       0.056640897 0.010215182 0.052523017 -0.010480178
000320 fe 4d a2 bd 9c ae 16 3d 04 2f 4e 3c 2e f5 5b bd
       -0.07925032 0.036787614 0.012584452 -0.05370062
000330 3d 2a 73 bd db 99 b2 3d 34 3e 21 bd 30 bf 80 bc
       -0.059366453 0.08720752 -0.039365962 -0.015716165
000340 09 92 e3 bb 6a 69 80 3d 97 35 8c bd 35 47 2c 3c
       -0.006944899 0.06270106 -0.06846159 0.010515024
000350 63 a8 3b bd 27 72 32 3c 0a b8 48 bd 29 15 ab bd
       -0.045814883 0.010891474 -0.04900364 -0.08353645
000360 6f 7d fe bc 9f 06 14 3d 14 d2 9d 3d e2 c8 f0 3c
       -0.03106567 0.036139127 0.07706085 0.029392663
000370 5c 07 91 bd 77 8a 78 bd 54 c0 02 bd 0d b1 e6 bc
       -0.07081482 -0.060678925 -0.0319217 -0.028160596
000380 46 e0 3e 3c 3c d2 bb bc 39 ca c2 bc 73 1c 81 bd
       0.011650151 -0.022927396 -0.023778068 -0.063042544
000390 ba 68 47 bb ff 25 ed bb 69 2f 29 bd 66 0c a2 bc
       -0.0030427412 -0.0072371955 -0.04130498 -0.019781303
0003a0 49 15 bc 3c ba 02 a0 3d aa 9e 69 bd 61 13 83 bd
       0.022959368 0.0781302 -0.05703608 -0.064001806
0003b0 e9 bd 67 3d 0f ad fb bc f4 e2 bb 3c 30 60 a8 3d
       0.056577597 -0.03072217 0.022935368 0.08221471
0003c0 8a 78 19 3d 15 4f 83 3d 01 ea 7b bb 38 f9 0e bc
       0.03746847 0.06411568 -0.0038439038 -0.008726411
0003d0 c1 18 8f 3d 0e 8f 82 bd 71 9a a8 ba 6e ae 90 3d
       0.06987143 -0.06374942 -0.001286341 0.0706452
0003e0 b5 c7 21 3d 48 5f fd 3c c0 25 27 bc d7 52 94 3d
       0.039497096 0.030929223 -0.010201871 0.07242363
0003f0 51 49 b6 bc fb 34 af 3d e8 96 9d 3d 9a b5 8f 3c
       -0.022251757 0.08555027 0.07694799 0.017542649

bias f4 [64]
000000 e9 2a 56 3d ec a0 ab bd f9 2c 4d 3c 42 16 b2 bc
       0.052287016 -0.08380303 0.012522929 -0.021739129
000010 31 cb 96 bd 4e 32 21 ba 6e d2 39 3c 01 39 88 3d
       -0.073629744 -0.00061491586 0.011341674 0.06651498
000020 71 5c 9c bd c6 67 24 3d 63 64 74 3d f3 e9 8f 3d
       -0.07634819 0.04013803 0.05966605 0.07027044
000030 5b e2 aa bd d5 b5 c6 bc 2a 97 27 bd 55 63 09 3d
       -0.08343955 -0.024256626 -0.040915646 0.033541996
000040 9a 12 9c bd 7d 1b 7d bc 6e 1e 92 bd af 6c 8e 3c
       -0.076207355 -0.015448448 -0.0713471 0.017385809
000050 2f 5a 4b bd 04 0f 5f bd ec 0f 23 bd 00 87 88 3c
       -0.049646553 -0.05445768 -0.039810106 0.016665936
000060 da a9 93 bd 1b 9b 8b bb 20 02 89 bd 7f 85 57 3b
       -0.07210131 -0.0042604334 -0.066898584 0.0032885966
000070 b0 43 99 3d 97 11 8e 3c da 6f 2a 3d 7a d4 c7 3b
       0.074836135 0.017342372 0.041610576 0.006098327
000080 0d 70 07 3d 0b 6d 58 bc d9 bc 0b bc 98 b3 9c 3d
       0.033065844 -0.013209592 -0.0085289115 0.07651442
000090 b9 b8 65 3d a0 60 37 3d 7a eb a8 3d 4d 68 12 bd
       0.05608437 0.044769883 0.082480386 -0.035744
0000a0 3c 54 24 3d 16 98 a5 bd 64 3d 96 3d 1c aa e7 bc
       0.040119395 -0.08085649 0.07335928 -0.028279357
0000b0 8d 89 11 3d 3e 44 7f 3d 2a 82 b3 ba 27 dc 86 3d
       0.03553157 0.06232094 -0.0013695408 0.065849595
0000c0 28 0b 6b bd 04 3d 9d bd d7 e7 04 3d 9d 64 52 3d
       -0.057383686 -0.076776534 0.032447662 0.051365484
0000d0 36 c3 32 bd 43 09 8e bd 86 fc e7 3c b4 c0 b3 3d
       -0.0436432 -0.0693536 0.028318655 0.087769896
0000e0 79 92 0c bd ba 98 51 bd f1 d0 19 bd ce 75 4e bd
       -0.034319375 -0.051171042 -0.037552778 -0.050405316
0000f0 92 f4 9a bd 42 30 4c 3d 3a 3d 76 3d 89 4b aa 3b
       -0.07566179 0.04985071 0.060116984 0.005196993
